agent_code/DQN_agent/my-saved-model.pt (torch, 959255 bytes, 6 tensors)

fc1.weight f4 [128, 1734]
0	0xbc6836b9	-0.014173203
1	0xbd122a8a	-0.0356851
2	0x3bc46ca7	0.0059943977
3	0xbc93d971	-0.01804802
4	0x3b8e9498	0.00435121
5	0xba3cf434	-0.000720802
6	0xbc7c2aae	-0.015391035
7	0x3c33984d	0.010961604
8	0x3baa477d	0.0051965103
9	0xbd0ab178	-0.033860654
10	0xbcf7d18a	-0.030251283
11	0x3c02e2c0	0.007988632
12	0xbc5bdfd1	-0.013420061
13	0xbbcc7821	-0.0062399064
14	0xbd090a08	-0.033456832
15	0xbcb5ad03	-0.022177225
16	0x3b293450	0.0025818534
17	0xbcd22377	-0.025651677
18	0xbcab916e	-0.02094337
19	0xbc62bfcb	-0.013839672
20	0xbb462b97	-0.0030238384
21	0xbce039ab	-0.027371248
22	0x3bf12393	0.007358977
23	0xbc489681	-0.012242914
24	0x3d6e8be7	0.05823889
25	0x3a692f40	0.00088952854
26	0x3d9e7558	0.07737225
27	0x3b9679ba	0.0045921477
28	0x3b5b55a0	0.0033467785
29	0x3d31005d	0.043213237
30	0xbc2217d8	-0.00989338
31	0x3c8a1aa8	0.016858414
32	0xba9d7626	-0.001201336
33	0xbaf27bb5	-0.0018500002
34	0xbc92f841	-0.017940642
35	0xbc0f9d4e	-0.008765532
36	0xbcd24125	-0.025665829
37	0x3a13746e	0.00056249544
38	0xbcda5e29	-0.026656227
39	0x3d8735ae	0.066020355
40	0xbc217bd0	-0.009856179
41	0x3d1ad37f	0.037799355
42	0x38ca77de	9.6544376e-05
43	0x3d04f64f	0.03246146
44	0xbcf8a71c	-0.030353121
45	0xbd024578	-0.03180453
46	0xbca19729	-0.0197254
47	0x3d144846	0.036201738
48	0xbc7834bd	-0.015149293
49	0x3c5526e0	0.013009757
50	0xbbc62699	-0.0060470817
51	0x3c3cb969	0.011518815
52	0xbd2b8e30	-0.041883647
53	0x3cce2d64	0.025168128
54	0x3d24c037	0.040222373
55	0xbc6f0b66	-0.01459012
56	0x3d3703e0	0.04468143
57	0xbba6093f	-0.00506702
58	0xbcbcc86d	-0.02304479
59	0x3b0855f7	0.0020803192
60	0x3ce87d31	0.028380008
61	0x3d3ada64	0.04561843
62	0x3d3285e4	0.04358472
63	0x3ce881c7	0.028382195
64	0x3caefccf	0.021360783
65	0xbbf0846e	-0.0073400056
66	0x3bd668fc	0.006543277
67	0xbd076ac0	-0.03306079
68	0xbb6d6a95	-0.0036226858
69	0xbc2c92e6	-0.01053307
70	0xbcbb63c7	-0.022874726
71	0xbbbe29b2	-0.0058033103
72	0xbb89375b	-0.004187507
73	0xbd153fe0	-0.03643787
74	0x3bb456df	0.00550352
75	0xbd337809	-0.043815646
76	0xbd0ae152	-0.03390629
77	0xbb604bb9	-0.0034224822
78	0xbcd9e1f5	-0.026597003
79	0xbc873ba4	-0.016507931
80	0xbcda0fa1	-0.02661878
81	0x3bd78898	0.0065775625
82	0xbc722745	-0.01477987
83	0x3b76fba2	0.0037686606
84	0xbac90255	-0.0015335778
85	0xbd09874a	-0.033576287
86	0x397b0f89	0.00023943013
87	0x3c2e19ea	0.010626296
88	0xba3f2948	-0.0007292223
89	0x3d2065fb	0.039159756
90	0xbb4438fc	-0.0029941192
91	0xbd1e26b2	-0.03861112
92	0xbc5c597d	-0.01344907
93	0x3cb8f1f0	0.022576302
94	0xbc895787	-0.01676537
95	0xbbe38ae2	-0.0069440464
96	0x3d4070c0	0.046982527
97	0xbcaab90a	-0.020840187
98	0xbc86b188	-0.016442075
99	0xbc50a892	-0.012735503
100	0x3d197dba	0.037473418
101	0xbc4f0d93	-0.012637514
102	0x3b11720f	0.0022193228
103	0x3d6698be	0.05629801
104	0xbcd5942d	-0.026071632
105	0x3d7f4d84	0.062329784
106	0x3c1b4a58	0.009478174
107	0xbc636fae	-0.013881607
108	0xbc948be5	-0.018133113
109	0x3d2fb64d	0.042898465
110	0xbcf67eac	-0.030089699
111	0x3ca619bb	0.020275941
112	0xbc93b8af	-0.0180324
113	0x3d01115e	0.031510703
114	0x3c21effa	0.009883875
115	0xbd0ac1ff	-0.033876415
116	0xbd054ee2	-0.03254593
117	0xbb6c8db4	-0.0036095204
118	0xbc19c948	-0.009386368
119	0xbccd7167	-0.025078489
120	0xbca1b810	-0.019741088
121	0x3d2281e1	0.039674643
122	0x3c20162e	0.009770913
123	0xbc4d3b17	-0.012526295
124	0x3c0ab865	0.008466815
125	0x3d23f639	0.040029738
126	0x3b40b5ec	0.002940531
127	0x3cfc2319	0.030778455
128	0xbce9ce68	-0.028540805
129	0xbd141091	-0.03614861
130	0x3d7c98f0	0.06166929
131	0xbaa8b64d	-0.0012871713
132	0x3d6823a9	0.056674633
133	0x3d3f1852	0.046654053
134	0x3c0a64b9	0.008446866
135	0xbbab6373	-0.005230361
136	0xbd12575a	-0.035727836
137	0x3d2cc073	0.04217572
138	0xbc60e0e1	-0.01372549
139	0x3886cb1e	6.4274514e-05
140	0xbceccce7	-0.028906299
141	0x3c4a98e3	0.012365553
142	0xbcfb88ea	-0.030704934
143	0x3d324add	0.043528426
144	0xbcce9a17	-0.02521996
145	0x3d71b1a8	0.059007317
146	0x3bf53861	0.0074835275
147	0xbd12210c	-0.035676047
148	0xbc7b0719	-0.015321516
149	0x3be70e68	0.007051278
150	0xbcbc8a93	-0.023015296
151	0xbce043f3	-0.02737615
152	0xbd0e6a9c	-0.03476964
153	0xbbfc7d87	-0.0077053937
154	0x3ba5af54	0.005056301
155	0x3d537d67	0.051633265
156	0x3d0a7ec2	0.033812292
157	0x3d82b94c	0.06382999
158	0xbc10c63b	-0.008836324
159	0x3b26e413	0.0025465533
160	0x3d68d0bd	0.056839693
161	0x3c61c012	0.013778703
162	0x3bff90f3	0.0077992617
163	0x3c185b19	0.009299063
164	0x3cff34a2	0.031153027
165	0x3d525685	0.051352043
166	0x3d5ce3b5	0.053928096
167	0x3d9b8ed3	0.07595601
168	0xbc5cc4fb	-0.013474698
169	0xbc56b2d4	-0.013104159
170	0xbc8b5643	-0.017008906
171	0x3d4c00aa	0.04980532
172	0xbba8f2db	-0.0051559038
173	0x3d8f862b	0.070080124
174	0xbc7964e9	-0.015221813
175	0x3d5eabd6	0.054363094
176	0xbc3ac3dd	-0.0113992365
177	0x3d7ba658	0.061437935
178	0xbb9765a3	-0.0046202703
179	0x3cd2844a	0.025697846
180	0x3b979d4b	0.004626905
181	0x3cf47cfa	0.02984475
182	0x3c17cc8b	0.009265075
183	0x3d46467a	0.048407055
184	0xbd11f5ec	-0.03563492
185	0xbc9d89df	-0.019230781
186	0x3a23c818	0.0006247773
187	0x3b859d49	0.0040775877
188	0xbd6ea9dd	-0.058267463
189	0x3c4e725e	0.012600509
190	0xbca40846	-0.020023476
191	0x3b27ce2e	0.002560507
192	0x3c7a19f9	0.015264981
193	0x3c02d343	0.007984939
194	0x3c14deab	0.009086291
195	0x3d0fb771	0.035087053
196	0x3c18e43b	0.009331758
197	0x3d3e998f	0.046533164
198	0x3ccf9c19	0.025342988
199	0x3d31753d	0.043324698
200	0x3cbb74a3	0.022882765
201	0x3b9913ea	0.0046715634
202	0xbc09e670	-0.008416757
203	0xbc83f4d3	-0.016107952
204	0xbb8a9397	-0.00422902
205	0x3c552e8f	0.013011589
206	0xbcf9f0ca	-0.030510325
207	0xbc6b894f	-0.014375999
208	0xbd09d9ba	-0.033654906
209	0xbcc2296d	-0.023701394
210	0xbc8b5cd9	-0.017012047
211	0x3ca0bddd	0.019621784
212	0xbcd60253	-0.026124155
213	0x3c61d12c	0.013782781
214	0xbcb69a9b	-0.022290519
215	0x3c52c00c	0.01286317
216	0x3c3e592e	0.011617942
217	0x3d152bb7	0.036418643
218	0xbcc2df8f	-0.023788242
219	0xbd11e673	-0.035620164
220	0xbc915f19	-0.017745541
221	0x3c109fc0	0.00882715
222	0xbb12472f	-0.002232026
223	0x3b59bf21	0.0033225494
224	0x3d903c3b	0.07042738
225	0xbc9db6e3	-0.019252246
226	0x3ceced94	0.02892188
227	0xbbac1236	-0.0052511944
228	0x3ca1e222	0.019761149
229	0x3c165d9f	0.009177594
230	0xbd22d17e	-0.03975057
231	0xb953bcf5	-0.0002019292
232	0xbcba9cca	-0.022779841
233	0x3d64513a	0.055741526
234	0x3d14b054	0.036300972
235	0xbc6a68c3	-0.014307204
236	0x3d820a9b	0.06349679
237	0xbcd712ff	-0.026254175
238	0x3aaeefb4	0.0013346584
239	0x3cb7023d	0.022339934
240	0xbc2e65a0	-0.0106443465
241	0xbad90517	-0.0016557303
242	0x3be4a1e3	0.006977306
243	0x3b9c2ea4	0.004766302
244	0xbc5e2f65	-0.013561104
245	0x3beb59a8	0.0071823187
246	0xbc7ad189	-0.015308746
247	0x3d7e3a3f	0.062067267
248	0xbc198304	-0.009369615
249	0x3cfe179b	0.031017115
250	0xbd12bdda	-0.035825588
251	0x3cdadb9e	0.02671605
252	0x3c22084e	0.009889675
253	0x3abbdf7e	0.0014333574
254	0x3bb43e2f	0.005500577
255	0xbce8edb3	-0.028433656

fc1.bias f4 [128]
0	0xbb90f47b	-0.0044236756
1	0xbc3df394	-0.011593718
2	0x3cab3305	0.020898351
3	0xbab50c61	-0.0013812893
4	0x3b96ba58	0.0045998506
5	0x3c9288b0	0.017887443
6	0x3ce1ab76	0.02754758
7	0x3d43e845	0.04782893
8	0x3b017145	0.0019751352
9	0x3ac96ae6	0.0015366941
10	0xbcc50195	-0.024048606
11	0x3d4ec806	0.050483726
12	0x3c92d5f4	0.017924286
13	0x3d49d247	0.0492728
14	0x3d3866af	0.0450198
15	0xbc0a7d1d	-0.008452681
16	0xbae09e58	-0.0017137034
17	0xbcdd891c	-0.027042918
18	0xbccd8563	-0.025088018
19	0x3c775e77	0.015098206
20	0x3bba3f50	0.005683817
21	0x3cd878c5	0.026424775
22	0x3c179b2b	0.0092533035
23	0x3d34d5db	0.04414926
24	0x3d5633f9	0.05229566
25	0xbc84f0c3	-0.016228085
26	0x3c17a74c	0.009256195
27	0xbc9d433b	-0.019197097
28	0xbb3f5509	-0.0029194972
29	0xbc1868d9	-0.009302341
30	0xbca2c66b	-0.019870004
31	0x3c543a56	0.0129533615
32	0xbc0f828c	-0.008759152
33	0x3c876e36	0.016532045
34	0xbbf6653e	-0.007519393
35	0xbd12ac3c	-0.035808787
36	0xbcb8e932	-0.022572134
37	0x3bf0458b	0.007332509
38	0x3c21fb4a	0.009886572
39	0xbc1736c8	-0.009229369
40	0x3c1c9284	0.009556416
41	0x3a400751	0.0007325309
42	0x3d3a84ba	0.045536734
43	0x3c1acb5d	0.0094479
44	0x3bff671b	0.0077942736
45	0x3d3052c5	0.043047685
46	0x3d2f7725	0.042838234
47	0x3c2fafa0	0.010723025
48	0x3be07cd1	0.006850817
49	0xbc82d76a	-0.015971858
50	0x3d632c15	0.05546196
51	0x3c5b9786	0.013402825
52	0x3d8f9405	0.07010654
53	0x3c7caf47	0.015422649
54	0xbc142494	-0.009041924
55	0x3c9083aa	0.017640907
56	0xbcb6caa6	-0.022313427
57	0x3c797279	0.015225046
58	0xbcf4eabd	-0.029897088
59	0xbc2faede	-0.010722844
60	0xbb8d57b3	-0.004313433
61	0x3cfb1c65	0.030653188
62	0x3ca7ab3e	0.020467397
63	0xb9418c1b	-0.00018458108
64	0xbc9b5010	-0.018959075
65	0xba03531a	-0.00050096365
66	0x3cc05934	0.023480035
67	0x3a8b93ae	0.001064887
68	0x3c7634ec	0.015027266
69	0x3b966f8f	0.0045909355
70	0xbbd2156f	-0.0064112465
71	0x3c81495a	0.015782047
72	0x3b0eedff	0.0021809337
73	0x3cdb5938	0.026775941
74	0x3c11ed1c	0.008906629
75	0xb8fe785c	-0.000121340825
76	0x3c886dec	0.016653977
77	0xbc491dce	-0.012275172
78	0x3bc11b0b	0.0058931164
79	0xbb69eb31	-0.0035693164
80	0xbc5169e6	-0.012781596
81	0x3d1158e0	0.03548515
82	0x3b81c9f5	0.0039608427
83	0x3b3570a9	0.002768556
84	0x3bdcd7fc	0.0067396145
85	0x3d1fbf31	0.039000694
86	0xbbfe0f30	-0.0077532753
87	0x3d25e3fc	0.040500626
88	0x3c8efda8	0.017454937
89	0xbcf0514d	-0.029335642
90	0x3d1133d4	0.035449818
91	0x3d4e7a34	0.05040951
92	0x3c9cea9c	0.01915484
93	0xba2ec0c4	-0.00066662976
94	0x3d48476a	0.04889623
95	0xbcd0d8ab	-0.02549394
96	0xbc423996	-0.01185455
97	0x3be632d2	0.007025101
98	0xbcee8fd3	-0.029121315
99	0x3b24a6a9	0.0025123751
100	0xbc4988ab	-0.012300651
101	0x3c3c4f13	0.011493462
102	0x3c26bfdd	0.01017758
103	0xbc6adcc8	-0.014334865
104	0xbb9a084a	-0.004700695
105	0x3d940aaa	0.072285965
106	0x3cf052b9	0.02933632
107	0x3c1db67f	0.00962603
108	0xbcc82a02	-0.024434093
109	0xbc8533a9	-0.016259985
110	0xbcac6fd5	-0.02104942
111	0xbcaa5d6c	-0.0207965
112	0x3d85f181	0.06540204
113	0xbc380c2a	-0.011233369
114	0xbb83ee64	-0.004026221
115	0x39b6dfcd	0.0003488049
116	0x3c1ce75f	0.009576648
117	0x3c4b684b	0.012415002
118	0x3d825c0a	0.06365211
119	0xbc24e189	-0.010063537
120	0x3c67b77a	0.014142865
121	0x3c4d330e	0.012524379
122	0xbcbdee1e	-0.023184832
123	0x3d1fe4d3	0.039036583
124	0x3c463e2e	0.012099786
125	0x3ba6a384	0.0050854106
126	0xbc8bc6e1	-0.017062606
127	0x3b86982c	0.004107496

fc2.weight f4 [128, 128]
0	0x3c4887aa	0.012239376
1	0x3d150b97	0.036388006
2	0x3b125a36	0.0022331602
3	0x3ca59c77	0.02021621
4	0xbd251f2f	-0.040312942
5	0xbcbc1b41	-0.022962214
6	0x3dd3d818	0.10343951
7	0xbcb0498b	-0.021519443
8	0x3d9957de	0.074874625
9	0x3d830d25	0.063989915
10	0x3d1e32ec	0.03862278
11	0xbbbc12e0	-0.0057395548
12	0xbd4459a5	-0.047937054
13	0x3d13c984	0.036080852
14	0x3d3c5a37	0.045984473
15	0xb9811a2c	-0.00024624297
16	0x3a99ad4d	0.0011724621
17	0x3d30a4e2	0.043125995
18	0x3d77e5a1	0.060521726
19	0xbd9d02f8	-0.07666582
20	0xbc2b65be	-0.010461269
21	0xbbcdd016	-0.0062809093
22	0xbd920290	-0.07129395
23	0x3d9db9d3	0.07701459
24	0x3c03d2cc	0.008045863
25	0xbd08ed62	-0.03342951
26	0x3d862107	0.06549268
27	0xbd54abc8	-0.051921636
28	0xbd03a2a4	-0.032137528
29	0x3db13b44	0.08653882
30	0x3d9495a0	0.07255101
31	0x3cf9f8cf	0.030514149
32	0xbd1e210e	-0.038605742
33	0xbb8485a7	-0.004044253
34	0x3bbcf872	0.0057669217
35	0x3d83649c	0.06415674
36	0x3c00ee61	0.007869334
37	0x3d7598b5	0.059960086
38	0x3d63cb10	0.055613577
39	0x3d4fc5ee	0.05072587
40	0xbd82f96c	-0.0639523
41	0x3cc8069e	0.024417218
42	0xbc08d7c9	-0.008352228
43	0xbca8d0bb	-0.020607343
44	0xbc94d82c	-0.018169485
45	0x3d425d29	0.047452126
46	0x3d5f3567	0.054494288
47	0x3d25c8f7	0.040474858
48	0x3daa300d	0.08309946
49	0xbd00ce74	-0.03144689
50	0xbccbb9ad	-0.02486881
51	0x3c8a8ae2	0.016911928
52	0x3d939ce6	0.072076604
53	0x3d5cd721	0.0539161
54	0x3bd89948	0.0066100694
55	0x3dde2b8f	0.10848152
56	0xbcafe468	-0.021471217
57	0xbdabc219	-0.083866306
58	0xbdb06d26	-0.086145684
59	0xbdb22378	-0.086981714
60	0xbc2d9554	-0.010594685
61	0xbd44e018	-0.048065275
62	0xbcfdcfaa	-0.030982811
63	0xbc23fb8f	-0.010008707
64	0xbd1ed35e	-0.038775794
65	0x3d3932b4	0.04521437
66	0x3c7016a6	0.014653837
67	0xbd8e3b30	-0.06944883
68	0x3d1845d6	0.037175976
69	0x3cce3db8	0.025175914
70	0x3da51066	0.080597684
71	0xbc0a9518	-0.008458398
72	0x3d26313f	0.04057431
73	0xbcc341cf	-0.02383509
74	0xbd4213b5	-0.047382075
75	0x3d236aa4	0.039896622
76	0x3c19c017	0.009384177
77	0xb832955b	-4.2577605e-05
78	0xbd727578	-0.05919406
79	0xbd5995a2	-0.053121217
80	0x3cb2976d	0.021800721
81	0xbd1227cb	-0.03568248
82	0x3de38ddc	0.11111042
83	0x3c2de311	0.010613219
84	0x3bc1dd16	0.005916248
85	0x3dc8cd59	0.09804792
86	0x3d38eb2d	0.045146156
87	0xbd90914d	-0.07058964
88	0x3c50e3d5	0.012749632
89	0x3d8fd088	0.07022196
90	0x3d0f28e2	0.0349511
91	0x3c3947da	0.011308635
92	0x3dda5c24	0.10662106
93	0x3d06fe38	0.032957286
94	0x3d4e7cff	0.050412174
95	0x3c85b041	0.016319396
96	0xbd1366e2	-0.03598679
97	0xbd3f2a8a	-0.046671428
98	0xbb9c5827	-0.0047712508
99	0x3d3b2bd5	0.0456961
100	0xbd3d42ef	-0.04620641
101	0x3da632d0	0.081151605
102	0xbdb4d364	-0.08829382
103	0xbd947489	-0.0724879
104	0x3d28241f	0.041050073
105	0x3d994ed4	0.074857384
106	0x3d8ccacf	0.0687462
107	0x37dac2db	2.6078362e-05
108	0xbcf6f911	-0.030148061
109	0x3bc7c744	0.0060967524
110	0x3c897b66	0.016782474
111	0x3bc2cddb	0.00594495
112	0x3d6d7f8a	0.05798296
113	0x3dbd400d	0.09240732
114	0x3c030b17	0.0079982495
115	0x3cd67003	0.026176458
116	0x3d36c54b	0.044621747
117	0x3da480ed	0.08032403
118	0x3d627aa6	0.055292748
119	0xbd4cffd4	-0.050048664
120	0xbd06947b	-0.032856446
121	0x3d8ff7c6	0.07029681
122	0x3d5a919d	0.053361524
123	0xbd2c27c5	-0.042030115
124	0x3d2342f0	0.03985876
125	0xbd95444a	-0.07288416
126	0x3cf341a2	0.029694382
127	0xbc63bb7f	-0.013899683
128	0x3d8fa74f	0.070143335
129	0xbda4ff90	-0.08056557
130	0xbd3308e7	-0.04370966
131	0xbd10a893	-0.035317015
132	0xbd8e3b89	-0.06944949
133	0x3d84a5d2	0.0647694
134	0x3d40e100	0.047089577
135	0x3d6cd86b	0.05782358
136	0x3c6b1745	0.01434881
137	0x3b960928	0.004578728
138	0xbd83fdfe	-0.064449295
139	0x3d76f93f	0.060296293
140	0x3cf8fd63	0.030394262
141	0x3c103a99	0.008803033
142	0x3d919095	0.07107655
143	0xbce903d0	-0.0284442
144	0xbcf62d28	-0.030050829
145	0xbcc21f3e	-0.023696538
146	0xbc73e6ad	-0.01488654
147	0x3d071d9c	0.032987222
148	0x3db348eb	0.087541424
149	0x3d4f959b	0.050679784
150	0x3d9fcb2d	0.078024246
151	0x3d53025a	0.051515914
152	0xbd9685f7	-0.073497705
153	0x3dadd454	0.08487764
154	0x3d82c9d1	0.0638615
155	0xbdb447a0	-0.08802724
156	0x3c89d39c	0.016824536
157	0x3d61dd12	0.05514247
158	0xbd912239	-0.070866056
159	0x3a04dd40	0.0005068369
160	0xbd9fc8af	-0.07801949
161	0xbcd3a7b1	-0.025836797
162	0xbbd654ec	-0.006540885
163	0x3d42fcfa	0.04760454
164	0xbc1edc8a	-0.009696135
165	0x3c123b12	0.008925216
166	0xbdb1e848	-0.08686882
167	0xbcb092c6	-0.021554362
168	0xbd2b90ee	-0.041886263
169	0xbd300899	-0.04297695
170	0xbcc2b9ec	-0.023770295
171	0x3b866886	0.0041018156
172	0xbd97909a	-0.074006274
173	0x3cb53344	0.022119172
174	0x3ccc0a0b	0.024907133
175	0x3da1371f	0.07871842
176	0x3d5ec185	0.054383773
177	0x3d2da66f	0.04239505
178	0xbd13f9d2	-0.03612692
179	0x3d7e9e87	0.062162902
180	0x3d9ce8cf	0.07661592
181	0xbd4a17c1	-0.04933906
182	0xbd7e0dcd	-0.06202488
183	0x3dae7e17	0.085201435
184	0xbda41257	-0.080113105
185	0x3c87559a	0.01652031
186	0xbd8a6e00	-0.06759262
187	0x3d2d5a7f	0.042322632
188	0xbdae80bf	-0.0852065
189	0xbd9e5932	-0.077318564
190	0xbc3e5380	-0.011616588
191	0xbd31f2e1	-0.043444518
192	0x3d941330	0.07230222
193	0x3d95ed2e	0.07320629
194	0x3da8b687	0.08237939
195	0x3d2a7cb8	0.041622847
196	0x3da036bf	0.07822942
197	0x3cba3c90	0.022733957
198	0xbd98ff54	-0.07470575
199	0x3d8f5936	0.069994375
200	0x3cc26260	0.02372855
201	0xbd3fb5ac	-0.046804115
202	0xbd68d322	-0.056841977
203	0xbd9d6b7c	-0.07686517
204	0xbcb146b6	-0.021640163
205	0x3ccf4cfb	0.025305262
206	0x3bf943f7	0.007606979
207	0x3d8a8380	0.06763363
208	0x3d79a20b	0.06094555
209	0x3da1b97c	0.078967065
210	0xbdabf4f6	-0.08396332
211	0x3beb06d5	0.0071724453
212	0x3d9a67ba	0.075393155
213	0xbd41e578	-0.04733798
214	0xbd883c5a	-0.06652136
215	0x3d9e0d6b	0.07717403
216	0xbd754709	-0.059882198
217	0x3cff6b39	0.031179057
218	0xbda928c4	-0.082597286
219	0xbd8813d3	-0.06644406
220	0xbd7c94df	-0.061665412
221	0xbd375cf9	-0.0447664
222	0xbd555791	-0.052085463
223	0x3d9432e4	0.07236269
224	0xbd8c9e0a	-0.06866081
225	0x3cc3caa5	0.02390034
226	0xbc9883da	-0.01861756
227	0xbc27026a	-0.010193447
228	0x3d75db03	0.06002332
229	0x3da5325b	0.08066245
230	0xba9bbe92	-0.0011882356
231	0xbd8e6c12	-0.069542065
232	0xbda088cd	-0.07838593
233	0xbd43b026	-0.04777541
234	0xbd828260	-0.06372523
235	0xbcefbfb8	-0.029266223
236	0xbd6f7b19	-0.058467004
237	0x3d057c5c	0.0325893
238	0xbd9479cd	-0.07249794
239	0xbc70eb5b	-0.014704551
240	0xbcc4fb68	-0.024045661
241	0x3d989902	0.07451059
242	0xbda0f452	-0.078591004
243	0xbd5e2bb1	-0.054240886
244	0xbd96c867	-0.073624425
245	0xbb04d496	-0.0020268313
246	0x3b6d4c13	0.0036208674
247	0xbd06cacd	-0.03290825
248	0xbd9cbb81	-0.07652951
249	0x3d6d12b5	0.05787917
250	0xbd4a1977	-0.04934069
251	0x3affcddd	0.0019516308
252	0xbd07f9d4	-0.03319724
253	0x3ce235a8	0.027613476
254	0xbcfdc329	-0.030976849
255	0x3aa17319	0.0012317627

fc2.bias f4 [128]
0	0xbd399e34	-0.04531689
1	0xbd8420c6	-0.064515635
2	0xbd7ad0ee	-0.061234407
3	0xbb60aeab	-0.0034283798
4	0xbd36cab8	-0.04462692
5	0x3d3b6670	0.04575199
6	0x3d4d1d92	0.05007703
7	0xbd1e917a	-0.038712956
8	0x3c92307b	0.017845383
9	0x3c7f23a6	0.015572464
10	0xbda89b44	-0.082327396
11	0x3ce0d9f1	0.027447673
12	0x3da5f1b0	0.08102739
13	0xbd8e4866	-0.06947403
14	0x3dd84785	0.10560516
15	0xbd0aefa4	-0.033919945
16	0xbd860312	-0.06543554
17	0xbd69501d	-0.056961168
18	0xbda8a11d	-0.08233855
19	0x3d6ad630	0.05733317
20	0xbb20c6fc	-0.0024532666
21	0xbd6c101a	-0.057632543
22	0x3ddee870	0.10884178
23	0xbbb39df1	-0.0054814746
24	0x3d736e13	0.059431147
25	0xbd51005f	-0.051025745
26	0xbd1578fd	-0.036492337
27	0x3df88ed0	0.12136614
28	0xbda242c6	-0.07922892
29	0xba7f839e	-0.00097470905
30	0xbd9e8281	-0.077397354
31	0xbd9f64c7	-0.07782894
32	0x3d081347	0.03322151
33	0x3d874547	0.066050105
34	0xbd264768	-0.040595442
35	0x3c511842	0.012762131
36	0xbaf937c9	-0.0019013818
37	0xbd89715a	-0.06711073
38	0x3aa3e428	0.0012503909
39	0xbdb12e48	-0.086514056
40	0xbd37d7f2	-0.044883676
41	0xbd96f6c0	-0.073712826
42	0xbd8ea1bd	-0.06964443
43	0x3c4c5d4b	0.012473415
44	0xbcfbb3ee	-0.030725446
45	0xbca54c67	-0.020178033
46	0x3d4e1265	0.05031051
47	0x3da828ed	0.08210931
48	0x3ca7d0d5	0.020485321
49	0xbd988df0	-0.074489474
50	0x3d984999	0.07435913
51	0x3c9f79fc	0.019467346
52	0x3d20870f	0.039191302
53	0xbdc07168	-0.093966305
54	0x3d532f9c	0.051559076
55	0xbc8e241c	-0.017351203
56	0x3c52f8e8	0.012876727
57	0xbd07f1a3	-0.033189427
58	0x3d9cb9c3	0.07652619
59	0x3cece2d2	0.02891675
60	0xbd5bb7ab	-0.053641956
61	0x3cb9cea7	0.022681547
62	0x3ddbafaf	0.10726868
63	0xbd9d9f3f	-0.076963894
64	0xbd6caaf1	-0.05778021
65	0x3d1a0437	0.037601676
66	0xbcb80481	-0.022463085
67	0xbd136000	-0.035980225
68	0xbd38dff4	-0.045135453
69	0x3d99c84f	0.07508909
70	0xbda4675c	-0.08027527
71	0x3d3a553a	0.045491435
72	0xbd0a5e8c	-0.033781573
73	0xbb966f3e	-0.004590898
74	0x3da0e736	0.078566
75	0xbd6022c4	-0.054720655
76	0xbd506b1f	-0.05088341
77	0x3deb9537	0.1150307
78	0x3d83cc44	0.06435445
79	0x3ccd5753	0.025066053
80	0xbd82fb28	-0.063955605
81	0x3a4074da	0.0007341631
82	0xbd32375e	-0.043509834
83	0xbd36dfe4	-0.044647112
84	0x3cdf368f	0.027247695
85	0xbce39879	-0.027782666
86	0x3d4ffb9f	0.050777074
87	0xbdba6ed1	-0.09103168
88	0xbccc41ed	-0.02493378
89	0x3dc179e1	0.09447075
90	0x3b41f646	0.0029596253
91	0x3c97ec54	0.018545307
92	0xbc756ae6	-0.0149791
93	0xbc0476f0	-0.008084998
94	0xbd67c0db	-0.056580406
95	0x3d5bae7d	0.053633202
96	0xbc9311b3	-0.017952776
97	0x3c0192f9	0.007908576
98	0x3d1d5a03	0.03841592
99	0x3d8d585f	0.06901621
100	0x3b0e060e	0.002167109
101	0x3dae2c20	0.0850451
102	0xbda37909	-0.0798207
103	0xbd05faab	-0.03270976
104	0x3d6bb28a	0.057543315
105	0xbdadc33c	-0.084845036
106	0x3b263243	0.0025359548
107	0x3c0b7017	0.008510611
108	0x3cc75d5a	0.024336506
109	0x3d574bef	0.05256265
110	0x3d9aa3ce	0.075507745
111	0x3d5d37f6	0.054008447
112	0x3d27b13a	0.0409405
113	0xbda3b17b	-0.07992836
114	0x3d6b94b6	0.05751487
115	0x3c659f53	0.014015037
116	0xbd87d288	-0.066319525
117	0x3da5d157	0.08096569
118	0x3d83e3ee	0.064399585
119	0x3d8cb3a7	0.068702035
120	0xbd2a3488	-0.041554004
121	0x3d9f6dab	0.077845894
122	0x3d4acb72	0.049510427
123	0x3da9c6f1	0.08289898
124	0x3d44c426	0.048038624
125	0xbda2ee50	-0.07955611
126	0xbd33f7a4	-0.04393734
127	0xbcde774a	-0.02715649

fc3.weight f4 [6, 128]
0	0xbdbe3188	-0.09286791
1	0x3c3a3db1	0.011367247
2	0x398b1712	0.00026529335
3	0x3d643a47	0.05571964
4	0xbbce339b	-0.006292773
5	0xbdaf6349	-0.08563859
6	0x3d73b70a	0.05950073
7	0xbdd35dca	-0.10320623
8	0x3d0f9530	0.035054386
9	0xbd8e821b	-0.069584094
10	0x3d811be2	0.06304146
11	0x3be6df9a	0.0070456984
12	0xbcf69604	-0.03010083
13	0xbdb52eba	-0.08846803
14	0xbdc108e8	-0.09425527
15	0xbc367a6f	-0.011137589
16	0xbdc47c6e	-0.095940456
17	0xbd15404b	-0.036438268
18	0x3c8d208a	0.01722743
19	0xbdd934a3	-0.10605743
20	0xbbc0bae6	-0.005881655
21	0xba67b67b	-0.00088391424
22	0xbd922283	-0.07135489
23	0xbd48ac70	-0.048992574
24	0xbcd113f1	-0.025522204
25	0xbd40a987	-0.047036674
26	0xbd6c58b1	-0.05770177
27	0xbc8ee00f	-0.017440824
28	0x3c8df435	0.017328361
29	0x3d13ddf5	0.036100347
30	0xbdabf9cb	-0.083972536
31	0xbda21146	-0.07913451
32	0xbc8d5189	-0.017250793
33	0xbdccd51f	-0.10001587
34	0x3c9a05db	0.01880162
35	0xbd20e7fa	-0.03928373
36	0xbdcdeeea	-0.10055335
37	0xbda924ac	-0.08258948
38	0x3d5ecf22	0.054396756
39	0x3d86c2e5	0.06580142
40	0xbb9ecaa8	-0.004845936
41	0xbdad862c	-0.08472857
42	0xbdad9d97	-0.084773235
43	0x3d1cd079	0.038284753
44	0xbceba1f1	-0.028763743
45	0xbcf7f3d5	-0.030267635
46	0x3d949804	0.07255557
47	0xbdac8e04	-0.08425525
48	0xbd325d98	-0.04354629
49	0x3d90ffb7	0.07080024
50	0xbd8d34ef	-0.06894862
51	0xbd17337d	-0.036914337
52	0xbd830c4a	-0.06398828
53	0x3cbd974e	0.023143437
54	0xbd247d7b	-0.04015873
55	0x3da21f36	0.07916109
56	0xbc438b92	-0.011935132
57	0xbdd09722	-0.10185076
58	0xbc69c008	-0.014266975
59	0x3c6ff5df	0.014646023
60	0x3c585c12	0.013205545
61	0xbc846637	-0.016162021
62	0xbdcd28c6	-0.100175425
63	0x3cc8ed50	0.024527222
64	0x3cd9749e	0.026544865
65	0xbd0f9469	-0.035053644
66	0xbd890175	-0.06689731
67	0xbd98d89f	-0.07463192
68	0x3ba54c86	0.0050445227
69	0x3d782945	0.060586233
70	0xbda1df27	-0.07903891
71	0xbda0f9b5	-0.07860128
72	0xbcd961d5	-0.026535908
73	0x3d11cb26	0.035594128
74	0xbd4b8e63	-0.049696337
75	0x3d08ca0f	0.033395823
76	0x3d65f22a	0.05613915
77	0xbc9e0264	-0.01928825
78	0x3d893198	0.066989124
79	0xbdbb8b57	-0.09157436
80	0xbd57c12c	-0.052674457
81	0xbaeee5de	-0.0018226465
82	0xbd139acb	-0.036036294
83	0x39cdb516	0.00039235567
84	0xbd07ce41	-0.033155683
85	0x3d9aa27a	0.07550521
86	0xbd0bf64d	-0.034170438
87	0xbd2369b2	-0.03989572
88	0x3cdee6fd	0.027209753
89	0xbddf60e9	-0.10907156
90	0xbd4d0522	-0.050053723
91	0xbccce134	-0.025009729
92	0x3a3cad24	0.0007197431
93	0x3d6f78fa	0.05846498
94	0xbd2a55ce	-0.041585736
95	0x3d10c9b6	0.035348617
96	0x3d20c47a	0.039249875
97	0xbd048074	-0.032349065
98	0xbc5c7854	-0.013456423
99	0xbdb56b52	-0.0885836
100	0x3cc2a1b5	0.023758749
101	0xbdce913a	-0.100862935
102	0x3d2494eb	0.04018108
103	0x3d9e1dfc	0.07720563
104	0xbd14362d	-0.03618448
105	0x3d52f0ba	0.051499106
106	0x3d5fe3e0	0.054660678
107	0x3d5decc2	0.054180868
108	0x3b517e1f	0.0031966043
109	0x3b3a18de	0.002839617
110	0x3d9be0a7	0.076112084
111	0xbdaaf55c	-0.0834758
112	0xbda3a15d	-0.07989762
113	0x3b824164	0.0039750803
114	0xbbcfea23	-0.00634505
115	0xbd9b3e0f	-0.07580196
116	0x3da0b289	0.07846553
117	0xbd52ee6b	-0.051496904
118	0x3da14d23	0.07876041
119	0x3da571ea	0.08078368
120	0x3c63d522	0.013905795
121	0xbc94cf15	-0.01816515
122	0x3cb26de9	0.021780925
123	0x3d615edc	0.055022106
124	0x3d8320f9	0.064027734
125	0x3ce7e071	0.028305264
126	0x3d8232a1	0.06357313
127	0xbc8b7cfb	-0.017027369
128	0x3c4e036c	0.012574058
129	0x3d8969d5	0.06709639
130	0xbce26914	-0.027637996
131	0x3d1d17f8	0.038352937
132	0x3da034f3	0.07822599
133	0xbd954898	-0.07289237
134	0x3dad69a6	0.084674165
135	0xbd26cfcb	-0.04072551
136	0xbd960e61	-0.07326961
137	0x3d827ee3	0.06371858
138	0x3d444882	0.04792071
139	0x3d315db5	0.043302257
140	0xbddb1910	-0.1069814
141	0x3d02b4ff	0.031910893
142	0x3cfbda39	0.030743705
143	0x3d8b8240	0.068119526
144	0xbc8ac383	-0.01693893
145	0xbc6c9c34	-0.014441539
146	0xbd33e06e	-0.043915205
147	0xbdae64eb	-0.08515342
148	0xbd0e8654	-0.034796074
149	0xbda2d431	-0.079506285
150	0x3d2e9aef	0.042628225
151	0x3cb435d0	0.021998316
152	0x3cfbf88e	0.030758169
153	0x3d2e29cd	0.042520333
154	0xbc79ddbf	-0.015250622
155	0xbd757c34	-0.059932902
156	0x3cf9d4b5	0.030496934
157	0xbc4cbad8	-0.012495719
158	0x3daeaa2b	0.08528551
159	0x3da0ac1a	0.07845326
160	0x3da6ca97	0.0814411
161	0xbcb84d94	-0.02249793
162	0xbc6f57c8	-0.014608331
163	0x3cfcc051	0.030853422
164	0xbd9ed9de	-0.077563986
165	0xbbf12f72	-0.0073603923
166	0xbd4b1fac	-0.04959075
167	0xbd9afafb	-0.07567402
168	0xbd1bc750	-0.038031876
169	0xbd18ab65	-0.03727283
170	0xbd293a6f	-0.041315492
171	0x3d733d07	0.059384372
172	0x3c8ef4c3	0.017450696
173	0x3d8bf8f5	0.06834594
174	0x3bd2608b	0.0064202
175	0x3cb4d817	0.022075696
176	0xbdce67d7	-0.100784
177	0xbd0a6133	-0.033784103
178	0x3cbb7b5f	0.022885976
179	0x3c9a41d5	0.01883022
180	0x3c4db4c3	0.012555304
181	0xbd5b96a4	-0.05361046
182	0x3c98b98c	0.018643163
183	0xbda7e437	-0.081978254
184	0x3c911bca	0.017713446
185	0xbcaedfc7	-0.02134694
186	0xbd92b759	-0.07163877
187	0xbc826be9	-0.015920596
188	0x3c51aca7	0.012797511
189	0x3cf44760	0.02981919
190	0xbb7f0836	-0.0038914806
191	0x3da22063	0.079163335
192	0x3c4ae9a7	0.012384809
193	0xbd372596	-0.04471358
194	0xbdc02b71	-0.09383286
195	0x3c8e4009	0.017364519
196	0x3d504f7c	0.050857052
197	0xbd0ac0d0	-0.033875287
198	0x3c72fdbb	0.014831002
199	0x3cd71335	0.026254276
200	0xbd563f4a	-0.05230645
201	0xbd7eba20	-0.06218922
202	0xbb46ec1d	-0.0030353137
203	0xbd9077e5	-0.07054118
204	0xbc871016	-0.016487163
205	0xbd53311c	-0.051560506
206	0x3bef484e	0.0073023206
207	0xbd958576	-0.07300846
208	0xbd18350d	-0.03715997
209	0xbae05fcb	-0.0017118392
210	0x3c8bdd4d	0.017073298
211	0xbd8d2e44	-0.0689359
212	0xbd984627	-0.074352555
213	0xbd203e53	-0.039121937
214	0xbd94dcbe	-0.07268666
215	0x3dab3f3e	0.08361672
216	0xbc1e8618	-0.009675525
217	0xbdb71935	-0.08940355
218	0xbd7aa19f	-0.06118929
219	0xbc2255ba	-0.009908134
220	0xbdb06a73	-0.086140536
221	0x3d0e6985	0.0347686
222	0xbce9363d	-0.028468246
223	0xbda1fb23	-0.07909229
224	0xba07adcb	-0.00051757385
225	0xbd8be755	-0.068312325
226	0xbb00ea44	-0.0019670883
227	0x3bbb7d77	0.0057217437
228	0x3cdf0893	0.027225768
229	0xbdab81d2	-0.08374371
230	0xbdb0233e	-0.08600472
231	0xbda814f7	-0.08207124
232	0xbcb372ec	-0.021905385
233	0x3d0fa026	0.03506484
234	0xbdb391d0	-0.08768046
235	0xbd488b9c	-0.048961267
236	0x3d035474	0.032062963
237	0xbdd33eac	-0.10314688
238	0xbc34fd03	-0.011046651
239	0xbd513762	-0.051078208
240	0xbbce327e	-0.00629264
241	0x3d8c8b65	0.06862525
242	0x3d6d2fd8	0.057906955
243	0x3cdc286a	0.02687474
244	0xbd924dfa	-0.07143779
245	0xbd1de3c2	-0.038547285
246	0x3d2b0f85	0.041762847
247	0xbc358e87	-0.011081344
248	0xbd0bc4c3	-0.034123193
249	0x3d6ebb3a	0.058284022
250	0xbd0470fc	-0.032334313
251	0x3d4d1b53	0.050074887
252	0x3d15d4f4	0.03658004
253	0xbbe40952	-0.006959119
254	0x3d6afb9b	0.057368856
255	0x3d3a5921	0.045495156

fc3.bias f4 [6]
0	0x3d01f830	0.03173083
1	0x3c058b57	0.008150897
2	0xbae2e3df	-0.0017310343
3	0xbddbc01d	-0.10730002
4	0xbd971f37	-0.07379001
5	0xbd6805e3	-0.05664624
