agent_code/DQN_agent/my-saved-model.pt (torch, 959255 bytes, 6 tensors)

fc1.weight f4 [128, 1734]
0	0x3c647118	0.013942979
1	0xbb9a7e25	-0.0047147446
2	0xbb992c99	-0.004674506
3	0x3c357d2a	0.011077205
4	0x3b4e39fb	0.0031467665
5	0x3c4e99ae	0.012609882
6	0xbc0ffb13	-0.008787888
7	0xbbad26b3	-0.0052841543
8	0xb9a6e4ab	-0.00031832358
9	0xbc5872ed	-0.013210994
10	0x3cd8ad58	0.026449844
11	0xbc3df06f	-0.011592968
12	0xbbc35de8	-0.005962122
13	0x3c7f4bac	0.015582006
14	0xbc47dd73	-0.012198794
15	0x3bd8aad6	0.006612162
16	0x3b9a5f93	0.0047111004
17	0x3ce4dc58	0.0279371
18	0xbcaa4d0b	-0.02078869
19	0xbc197be8	-0.00936792
20	0xbc3e2105	-0.011604552
21	0x3b813011	0.0039424975
22	0xbc95c926	-0.018284392
23	0x3c61255f	0.01374182
24	0x3c6118dc	0.013738837
25	0x3c13c91d	0.009020117
26	0xbcc92e7d	-0.0245583
27	0xbae3ef8d	-0.0017390117
28	0xbcd219c2	-0.025647048
29	0xbcc4de83	-0.024031883
30	0xbb867bb6	-0.004104103
31	0x3c8b7c74	0.017027117
32	0xbc8febbf	-0.017568467
33	0x3cc45704	0.023967274
34	0xbc9429f0	-0.018086404
35	0xbc096622	-0.008386167
36	0xbbff345f	-0.0077882255
37	0xbce8423d	-0.028351897
38	0xbc13a259	-0.009010875
39	0x3c85f4a3	0.016352003
40	0x3c9320a5	0.017959902
41	0xbccdf1d7	-0.025139732
42	0xbc88bed4	-0.016692556
43	0x3c637ca1	0.013884694
44	0x3a0ffb07	0.0005492423
45	0xbc013cee	-0.007888062
46	0x3cbbd609	0.022929208
47	0xbc5ad7af	-0.013357087
48	0x3bd68626	0.0065467535
49	0xbb00b3b4	-0.0019638361
50	0x3c73b23e	0.014874039
51	0xbc8da425	-0.017290184
52	0x3a1e1c69	0.0006031455
53	0x3bb65547	0.005564365
54	0xbc46696c	-0.0121100955
55	0xbcc3de3d	-0.023909682
56	0x3b343459	0.0027497022
57	0xbce04e2c	-0.027381025
58	0x3bdcee60	0.0067422837
59	0x3c2291de	0.009922473
60	0xbcc2209b	-0.023697188
61	0x3c459c95	0.012061258
62	0x3c36ec0f	0.011164679
63	0x3c3bafc1	0.011455477
64	0xbce1e90c	-0.027576946
65	0x3b5829e3	0.003298395
66	0xbc761fa8	-0.015022196
67	0xbba5542b	-0.005045434
68	0x3cb3cabd	0.02194726
69	0xbcbbcb6f	-0.022924153
70	0x3c51a0c3	0.012794676
71	0x3a337158	0.00068451976
72	0x3c5a5bba	0.013327533
73	0x3ae1089e	0.0017168706
74	0x3b6501ae	0.0034943628
75	0x3c271226	0.010197198
76	0xbb8ff71b	-0.004393471
77	0xbcb81a8a	-0.022473592
78	0x3ca7b20f	0.020470647
79	0xbca7f1b9	-0.020501005
80	0x3ca6b64d	0.0203506
81	0xbc7e0799	-0.015504741
82	0x3c298e34	0.010348845
83	0x3c600bb4	0.013674665
84	0xb9f23df0	-0.00046203984
85	0x3cbcf7b3	0.023067331
86	0x39f6b044	0.00047052104
87	0x3baf220b	0.0053446344
88	0x3c1f3a09	0.0097184265
89	0x3be4af1b	0.006978882
90	0xbc55d6e6	-0.013051724
91	0x3bbc13ec	0.0057396796
92	0x3cb21d98	0.021742627
93	0xbb1f7a42	-0.0024334346
94	0xbba265a7	-0.0049559656
95	0x3b8fe353	0.004391113
96	0x3bea9db9	0.0071599153
97	0x3ba907b7	0.0051583904
98	0xbce9571f	-0.028483925
99	0x3b2970a2	0.0025854488
100	0x3ba3a063	0.004993485
101	0xb9cf14e8	-0.00039497693
102	0x3ceb808b	0.028747818
103	0xbc1c1083	-0.009525421
104	0x3b19ca96	0.0023466698
105	0xbb3cb44f	-0.0028793996
106	0xbc46fc2b	-0.0121450825
107	0x3b993cb7	0.004676427
108	0x3cce596d	0.025189126
109	0x3bb9eb96	0.005673836
110	0x3c544684	0.012956265
111	0x3c93b180	0.018028975
112	0x3b713ede	0.0036811153
113	0xbcb29dbd	-0.021803731
114	0x3c09bd94	0.008407015
115	0x3b058e7a	0.0020379112
116	0x3b40e48b	0.0029433097
117	0x3c0cf025	0.008602177
118	0x3c90c95f	0.017674146
119	0xbb8f4133	-0.004371786
120	0xbaf07fb6	-0.0018348608
121	0x3bbd17aa	0.0057706432
122	0xbc2baac6	-0.010477727
123	0x3c1fc90b	0.009752522
124	0xbb1f0edc	-0.0024270331
125	0xbc91ce14	-0.017798461
126	0x3c3cec2d	0.011530918
127	0xbc887817	-0.016658826
128	0xbb632a46	-0.0034662648
129	0xbcb35c11	-0.021894487
130	0xbca03ade	-0.01955932
131	0x3bb55631	0.0055339565
132	0x3c6fbfa2	0.014633091
133	0x3b9b5853	0.0047407537
134	0xbc9d0ea5	-0.019172022
135	0x3c748b65	0.014925812
136	0xba842916	-0.0010083045
137	0x3c868a04	0.016423233
138	0x3c999807	0.01874925
139	0x3c8f7aa8	0.017514542
140	0x3cefba7d	0.02926373
141	0x3be431ad	0.0069639296
142	0x3b928320	0.0044711977
143	0x3cb166ef	0.021655528
144	0x3ca05d92	0.019575868
145	0x3c89c5ac	0.01681789
146	0x3bcc2f1e	0.0062312027
147	0x3c802be3	0.015645927
148	0x3cd81f40	0.026382089
149	0xbc6b6371	-0.01436697
150	0x3c9455c2	0.018107299
151	0xbc9f8eba	-0.019477237
152	0x3cb14431	0.021638962
153	0x3c6a4f38	0.014301114
154	0x3c405f33	0.011741447
155	0xbb65c3e9	-0.0035059399
156	0x3be59a51	0.0070069213
157	0x3aa868d4	0.0012848624
158	0xbbde7291	-0.0067885597
159	0xbbde4051	-0.0067825695
160	0xbc53a1be	-0.01291698
161	0xbc2c9916	-0.010534545
162	0x3c53783d	0.012907085
163	0xbcc41ec1	-0.023940446
164	0x3c923813	0.017849004
165	0xbc89f9f2	-0.016842816
166	0xba245a40	-0.0006269552
167	0x3b2eb49c	0.0026657945
168	0x3cb5363d	0.02212059
169	0x3a31b95e	0.0006779636
170	0xbc397b8d	-0.011320961
171	0xbcb15237	-0.021645648
172	0xbbb29129	-0.0054494333
173	0xbc54148d	-0.012944353
174	0xbb4e0500	-0.0031436086
175	0xbc466d1f	-0.012110977
176	0x3ccd9e51	0.025099905
177	0xbc717c3c	-0.014739092
178	0x3c9e4c95	0.019323627
179	0x3c8a1677	0.016856415
180	0x3cd7b8ba	0.026333202
181	0x3cc30a9c	0.02380877
182	0xbbf21993	-0.0073883026
183	0x3b35f874	0.0027766498
184	0x3c3d24fb	0.011544461
185	0xbce7145e	-0.028207954
186	0x3b256aa9	0.0025240576
187	0xbc38ffd7	-0.011291466
188	0xbcb2a0ea	-0.021805245
189	0xbc959a55	-0.018262068
190	0xbca6a260	-0.020341098
191	0xbaaab93d	-0.0013025176
192	0xbca20a6c	-0.01978036
193	0xbcc956ea	-0.024577577
194	0xbbf2b5b3	-0.007406914
195	0xbbeb510f	-0.007181294
196	0xbbf1ad2d	-0.0073753805
197	0xbcd6635c	-0.026170425
198	0xbcad8467	-0.021181298
199	0x39b6acb3	0.00034842416
200	0xbc0bc00e	-0.008529676
201	0xbc97526e	-0.018471923
202	0xbc423117	-0.011852524
203	0xbc8d0a8d	-0.017216945
204	0x3c153b11	0.009108321
205	0xbbf90a3b	-0.0076000965
206	0x3c98d8b4	0.01865802
207	0x3cb34115	0.02188162
208	0xbb87a8f3	-0.0041400134
209	0xbb988bc5	-0.0046553337
210	0x39864499	0.0002560958
211	0xbc4bc7fc	-0.012437817
212	0x3c015e34	0.007895995
213	0x3c4209ed	0.011843187
214	0x3cebbcea	0.028776605
215	0xba66aa10	-0.0008799145
216	0x3bbf4760	0.005837366
217	0x3c206ea6	0.009792006
218	0x3c0d9324	0.008641038
219	0xbc95e5b7	-0.018298013
220	0xba9c055c	-0.0011903453
221	0xbb05cc32	-0.00204159
222	0x3c72d305	0.014820819
223	0xbbf115a2	-0.007357315
224	0xbbdca73d	-0.0067338035
225	0x3c655ed7	0.013999662
226	0xbc449821	-0.011999161
227	0x3b2c63e6	0.0026304661
228	0x3c5617bd	0.013067183
229	0xbc9fb715	-0.01949648
230	0x3bfbb420	0.0076813847
231	0x3c98a44a	0.018633027
232	0xbc7578f3	-0.01498245
233	0xbcd2b1f4	-0.02571962
234	0xbc9ff8cf	-0.01952782
235	0x3cc165c1	0.02360809
236	0x3c23c5b3	0.009995866
237	0xbc30471c	-0.010759141
238	0xbc3ea25f	-0.011635392
239	0xbc048959	-0.008089387
240	0x3c0398a9	0.0080320025
241	0xba63287e	-0.00086653966
242	0x3c48272e	0.012216372
243	0x3b596e66	0.0033177375
244	0xbc8c1b70	-0.017102927
245	0xbbcc4932	-0.0062343115
246	0x3c9b43ca	0.018953223
247	0x3bcd17d1	0.0062589427
248	0xbbbdd0ba	-0.0057927044
249	0x3b124470	0.0022318624
250	0xbc8ae8d5	-0.016956726
251	0x3c96e7ea	0.018421132
252	0xbc0e9229	-0.0087018395
253	0x3c8ba62d	0.017047012
254	0x3bc5c6fe	0.0060356846
255	0x3c85328f	0.01625946

fc1.bias f4 [128]
0	0xbcaa0d3d	-0.020758266
1	0xbcf1bb82	-0.029508356
2	0xbb634210	-0.0034676827
3	0xbd3da546	-0.046300195
4	0xbcea4ca3	-0.028600996
5	0xbcbdb2b0	-0.023156494
6	0xbce615bc	-0.028086536
7	0xbc06ad71	-0.008220063
8	0xbcccc052	-0.02499405
9	0xbbe2d647	-0.0069225165
10	0xbbe8a5db	-0.0070998496
11	0x3b38f9ec	0.0028225137
12	0xbd96a8cf	-0.073564164
13	0xbca46dec	-0.020071946
14	0xbcf06be3	-0.02934832
15	0xbc5a6d14	-0.01333167
16	0xbb972d03	-0.00461352
17	0xbcf812c0	-0.030282378
18	0xbc39d387	-0.011341936
19	0x3c1e4612	0.009660261
20	0x3bc57568	0.006025959
21	0xba3b49cb	-0.000714448
22	0x3b660318	0.003509706
23	0xbcad6e99	-0.021170901
24	0xbba3e1c3	-0.005001278
25	0x3eae0ae4	0.33992684
26	0x3b0c7272	0.002143052
27	0xbd25c812	-0.040474005
28	0xbc32c892	-0.0109120775
29	0xbc70045c	-0.014649477
30	0x3c0c0b5c	0.00854763
31	0x3c4be8fd	0.012445685
32	0xbc55b0c4	-0.0130426325
33	0xbc7a62b7	-0.0152823245
34	0xbd41213a	-0.047150828
35	0xbc80c08a	-0.01571681
36	0xbd2005cc	-0.03906803
37	0x3c57da85	0.013174658
38	0xbc55de69	-0.013053515
39	0x3b818a4b	0.0039532534
40	0xbb6a56de	-0.0035757343
41	0xbcea6056	-0.02861039
42	0xbca153b5	-0.019693235
43	0xbb8d23f1	-0.004307263
44	0xbd44968b	-0.04799513
45	0xbb23917b	-0.002495854
46	0xbb751d62	-0.0037401547
47	0xbcf30ea8	-0.029670075
48	0xbceda8f5	-0.029011229
49	0xbba5419b	-0.005043221
50	0x3ec8732a	0.39150363
51	0xbd003709	-0.031302486
52	0x3ca884b3	0.020571088
53	0xbd6b9a2f	-0.057520088
54	0x394b14f5	0.00019367396
55	0xbb256584	-0.002523751
56	0x3be4dade	0.006984099
57	0xbcbce7af	-0.023059694
58	0x3c400e90	0.011722222
59	0x3c93665e	0.017993148
60	0x3bd70c11	0.0065627177
61	0x3c711402	0.014714243
62	0xbcfb4353	-0.030671751
63	0xbcb0a831	-0.021564575
64	0xba7bc05d	-0.00096035545
65	0xbb787092	-0.0037908894
66	0xbce1cf01	-0.027564527
67	0xbc449ab2	-0.011999773
68	0xbb862ef2	-0.004094952
69	0x3b8bee70	0.0042703673
70	0x3c43c9d7	0.011949978
71	0x3c5a0c1e	0.013308553
72	0x3b22fa82	0.0024868553
73	0xbca68a52	-0.020329628
74	0xbc128e17	-0.00894501
75	0xbcc215df	-0.02369207
76	0xbc3272d7	-0.010891638
77	0xbc09650d	-0.008385909
78	0x3c4eb795	0.012617012
79	0xbc782ae1	-0.015146942
80	0xbd45a89b	-0.048256498
81	0xbd0b46e4	-0.034003153
82	0x3c25d5a2	0.010121735
83	0xbb85ada8	-0.0040795393
84	0x3c8f9a59	0.017529653
85	0x3c3c65b6	0.011498859
86	0x3c1e6a77	0.009668938
87	0xbc0755f8	-0.008260243
88	0xbd0c24a5	-0.034214634
89	0x3d17fde0	0.03710735
90	0x3c8ca09a	0.017166425
91	0xbc98623f	-0.018601535
92	0xbd1b9628	-0.037984997
93	0xbcbc6f99	-0.023002433
94	0xbc9d34b5	-0.019190172
95	0xbb8de819	-0.0043306467
96	0xbc9110e8	-0.017708257
97	0xbb65b5e4	-0.0035051042
98	0xbc623ca2	-0.013808401
99	0xbc8f4a0b	-0.017491361
100	0xbb27ae09	-0.002558591
101	0xbd29ee16	-0.041486822
102	0xbd486b55	-0.048930485
103	0x3dd08988	0.10182482
104	0x39dcf0de	0.0004214113
105	0x3deb79a3	0.1149781
106	0xbc42a0f8	-0.011879198
107	0xbcf9f396	-0.030511659
108	0xbc67bed3	-0.014144617
109	0xbcc4d073	-0.024025178
110	0xbd48fff4	-0.04907222
111	0xbc10bad0	-0.008833602
112	0xbcd61560	-0.02613324
113	0xbcdf2dba	-0.027243484
114	0xbc456552	-0.012048082
115	0xbcdcd03c	-0.026954763
116	0x3d760382	0.06006194
117	0xbc130911	-0.00897433
118	0xbcd76c4f	-0.026296763
119	0xbcd3ba41	-0.025845649
120	0xbce76514	-0.02824644
121	0xbb34af39	-0.002757026
122	0xbcf70f03	-0.030158525
123	0xbd0a2917	-0.033730593
124	0xbb811bc1	-0.003940076
125	0x3b98fc86	0.004668775
126	0xbc9d3345	-0.019189486
127	0xbb7126d8	-0.0036796834

fc2.weight f4 [128, 128]
0	0x3d146509	0.036229167
1	0xbbc713bf	-0.006075352
2	0x3cd9b4c0	0.026575446
3	0x3da12293	0.07867923
4	0x3c09b75b	0.008405532
5	0xbd7ce804	-0.061744705
6	0xbc263a6a	-0.010145763
7	0x3d9d6cfd	0.076868035
8	0xbd60bce8	-0.054867655
9	0x3cb2c804	0.02182389
10	0xbd2ec272	-0.042665906
11	0xbca78b4e	-0.020452168
12	0x3d237d80	0.039914608
13	0x3d239b76	0.03994318
14	0xbc828890	-0.015934259
15	0xbc2326fe	-0.009958027
16	0xbd977d31	-0.07396925
17	0x3d9ce641	0.07661105
18	0x3ba217f5	0.0049467036
19	0xbd930628	-0.071789086
20	0xbb02ffc4	-0.0019988874
21	0x3d5bf7da	0.053703167
22	0xbce29bca	-0.027662177
23	0x3d97eb4d	0.07417927
24	0xbda81b6a	-0.08208354
25	0x3ce40bc5	0.027837643
26	0xbd99da7f	-0.07512378
27	0xbd48a35e	-0.048983924
28	0x3d14840c	0.036258742
29	0xbb7e3899	-0.003879106
30	0x3d8a1ec1	0.06744147
31	0xbd47e15b	-0.0487989
32	0xbdd982f8	-0.106206834
33	0x3c93ccb0	0.018041939
34	0xbd907b01	-0.07054711
35	0x3d6e08f0	0.058113992
36	0xbd27fa33	-0.041010093
37	0xbd16d7e9	-0.036827
38	0x3daf6fdf	0.085662596
39	0x3ca5ec21	0.020254197
40	0x3c6431bd	0.013927874
41	0x3d0ce423	0.034397256
42	0x3cfd2578	0.030901656
43	0xbd6076ef	-0.054800924
44	0x3d277f48	0.04089287
45	0xbdb4340c	-0.0879899
46	0x3d92c175	0.07165805
47	0xbd832e97	-0.06405371
48	0x3d713a5d	0.05889355
49	0xbd553644	-0.052053705
50	0xbda5e24f	-0.080998056
51	0xbd855bd6	-0.06511657
52	0xbd692ca8	-0.056927353
53	0xbd308abc	-0.043101057
54	0x3cd43cd8	0.025907919
55	0xbc603206	-0.0136838015
56	0xbd4956b0	-0.049154937
57	0xbc5641d3	-0.013077217
58	0x3d7fd0fd	0.062455166
59	0x3cbbe0c0	0.022934318
60	0x3d0779ba	0.033075072
61	0xbd22928f	-0.03969055
62	0xbd994a6e	-0.074848995
63	0x3d31a99a	0.043374635
64	0xbd2e6739	-0.04257891
65	0xbd20cc0f	-0.039257105
66	0x3da18205	0.078861274
67	0xbc30fcd1	-0.010802464
68	0xbc746eef	-0.014919027
69	0xbccf6619	-0.025317239
70	0x3d647d46	0.055783533
71	0xbd9ad9bb	-0.0756106
72	0xbd49c92e	-0.049264126
73	0x3dc1ed88	0.094691336
74	0xbcebd06b	-0.028785905
75	0x3c1273aa	0.008938709
76	0xbd5d14be	-0.05397486
77	0xbd170995	-0.036874373
78	0xbc3d3b62	-0.0115498025
79	0xbc6ad57b	-0.014333124
80	0x3c09969c	0.0083977245
81	0x3d722c63	0.05912436
82	0xbd3561af	-0.04428261
83	0xbd38f946	-0.0451596
84	0xbd4d3f0c	-0.050108954
85	0x3cd613c5	0.026132474
86	0xbd6c24c7	-0.05765226
87	0xbc628849	-0.013826438
88	0x3da8c3ec	0.08240494
89	0xbd911ef9	-0.07085986
90	0x3c02f40c	0.007992756
91	0xbda47502	-0.0803013
92	0xbd4edddb	-0.050504547
93	0x3dab1b18	0.08354777
94	0x3cd89b08	0.026441112
95	0xbdba96c0	-0.091107845
96	0x3d057dc5	0.032590646
97	0x3b2c74e6	0.0026314794
98	0xbd03cea1	-0.03217948
99	0x3c3be4f0	0.011468157
100	0x3d9ebdc0	0.07751036
101	0xbd32d79d	-0.043662656
102	0xbcb32947	-0.021870269
103	0xbd751c40	-0.059841394
104	0x3d936f27	0.07198935
105	0xbbdf6abf	-0.006818145
106	0x3d8ca403	0.0686722
107	0x3ccb43aa	0.024812538
108	0x3b95d5af	0.004572592
109	0x3c47080e	0.0121479165
110	0x3dac4893	0.0841228
111	0xbd2dd383	-0.04243804
112	0x3d196072	0.037445493
113	0x3d0baacb	0.034098428
114	0x3c6611ee	0.014042361
115	0x3d98c22f	0.074589126
116	0xbc510854	-0.012758333
117	0x3cee9047	0.029121531
118	0x3dbaa58e	0.09113608
119	0xbd848571	-0.064707644
120	0xbd3740ae	-0.044739418
121	0x3d0e0f0e	0.034682326
122	0xbcad18cf	-0.021129994
123	0x3d850337	0.06494754
124	0xbc6a2f2a	-0.014293471
125	0x3d67a1ee	0.056550913
126	0x3d591f17	0.053008165
127	0x3db30ee6	0.08743076
128	0xbcf94e5a	-0.030432869
129	0xbca3ba2a	-0.01998623
130	0xbca7f176	-0.02050088
131	0x3bec9ccc	0.00722084
132	0xbc508372	-0.0127266515
133	0xbc3d4010	-0.011550918
134	0x3c7ff6f5	0.015622844
135	0x3b8dddc8	0.004329417
136	0xbd04d3c0	-0.032428503
137	0xbdaf9cfb	-0.085748635
138	0xbd5b96f8	-0.053610772
139	0xbca34d9e	-0.019934472
140	0x3d9e4ee5	0.07729892
141	0xbd14bc39	-0.036312316
142	0xbd80a765	-0.06281928
143	0xbda454a5	-0.08023957
144	0xbb7a1aed	-0.0038163022
145	0xbceca75c	-0.028888397
146	0x3bbce160	0.0057641715
147	0x3d154dec	0.036451265
148	0xbcf74d8a	-0.03018834
149	0x3cf18ec9	0.02948703
150	0xbcd87220	-0.026421607
151	0xbc244b48	-0.010027714
152	0x3d6aa538	0.05728647
153	0xbd84a4ad	-0.06476722
154	0xba32fe9e	-0.0006828102
155	0x3d24ca58	0.040232033
156	0xbd2fd0f7	-0.042923894
157	0x3d1f9c5d	0.03896748
158	0x3c155ba8	0.009116091
159	0xbd392950	-0.045205414
160	0x3d36e0ef	0.044648107
161	0xbd5ce078	-0.053925008
162	0xbdac7b7d	-0.08421991
163	0x3d281cc6	0.041043065
164	0xbdadbc47	-0.08483177
165	0x3d4ea9e1	0.050454978
166	0x3d627579	0.055287812
167	0xbc72ad3d	-0.014811811
168	0x3cfdcb1b	0.030980637
169	0xbdb0fbc3	-0.0864177
170	0x3d516a0b	0.05112652
171	0x3d3c4c60	0.045971274
172	0x3d9c4d94	0.07631984
173	0x3d958408	0.073005736
174	0x3c85cbdd	0.016332561
175	0x3d11b62b	0.03557412
176	0x3d9ab31e	0.07553695
177	0x3d6627ed	0.05619042
178	0xbd1774a9	-0.03697649
179	0x3c3a213a	0.011360461
180	0x3c2fa77c	0.010721084
181	0xbd959a98	-0.07304877
182	0xbc3eb449	-0.011639663
183	0xbd7a27bb	-0.061073046
184	0x3da4fa0c	0.08055505
185	0xbc0ab796	-0.008466622
186	0x3d9c1149	0.076204844
187	0x3db1657d	0.086619355
188	0xbd8fdf29	-0.07024986
189	0xbd8fa845	-0.07014517
190	0xbd407292	-0.046984263
191	0x3d3b9bf9	0.045803044
192	0xbcedbdef	-0.029021231
193	0x3d12b07d	0.035812844
194	0xbc690096	-0.014221331
195	0xbdc017c8	-0.09379536
196	0x3d1324a4	0.035923615
197	0xbd39c271	-0.04535145
198	0xbbff5828	-0.0077924915
199	0xbd041b49	-0.032252584
200	0xbcc8b459	-0.024500059
201	0x3d6b06a5	0.057379384
202	0xbd16bae5	-0.03679933
203	0xbc9910e4	-0.018684812
204	0xbb851369	-0.0040611518
205	0x3d81ba82	0.06334402
206	0x3db1475c	0.08656189
207	0x3d634f05	0.05549528
208	0xbd6f8293	-0.058474135
209	0xbdac7c9c	-0.08422205
210	0xbcf96be0	-0.030446947
211	0x3cde84a2	0.027162854
212	0x3cf62f87	0.03005196
213	0xbbd3e448	-0.006466422
214	0x3c9e9c44	0.019361623
215	0xbd939556	-0.07206218
216	0xbb43d39c	-0.0029880768
217	0xbd47b2d7	-0.04875454
218	0xbcaf92de	-0.021432336
219	0x3d8ec2bb	0.06970736
220	0xbd13ee56	-0.036115967
221	0x3bd4275b	0.006474418
222	0x3d26a908	0.040688545
223	0xbb861e2f	-0.0040929536
224	0x3da8e1dc	0.08246204
225	0x3d3852be	0.045000784
226	0x3da89541	0.08231593
227	0xbd21a348	-0.039462358
228	0xbb841407	-0.0040307078
229	0xbd68a8dd	-0.056801666
230	0xbca94534	-0.020662881
231	0xbdb17f45	-0.08666853
232	0x3d3b9921	0.045800332
233	0x3cab3701	0.020900251
234	0xbd8065d8	-0.06269425
235	0x3d3f4d58	0.04670462
236	0xbd358b49	-0.044322286
237	0x3d7c57d4	0.061607197
238	0xbcd50cde	-0.026007112
239	0x3d9897e4	0.07450846
240	0x3d2aca2d	0.041696716
241	0x3d5575aa	0.052114166
242	0xbd81b01d	-0.06332419
243	0x3d84fe1a	0.064937785
244	0xbcd90f10	-0.02649644
245	0xbae96e6f	-0.0017809401
246	0xbca586c6	-0.020205867
247	0xbd47259f	-0.048619863
248	0x3dad900e	0.08474742
249	0x3d4efbb0	0.050532997
250	0x3c57162f	0.013127848
251	0x3abf3fb8	0.0014591133
252	0x3d909a1a	0.070606425
253	0x3d1624c5	0.03665616
254	0x3cfa530a	0.030557174
255	0xbd29b961	-0.041436557

fc2.bias f4 [128]
0	0xbcd06c27	-0.025442196
1	0x3cdb7ee1	0.026793899
2	0xbdb37108	-0.087617934
3	0xbdb66367	-0.08905678
4	0xbc9bc036	-0.019012552
5	0xbd7604f4	-0.060063317
6	0xbcaae8f4	-0.020863034
7	0xbd292623	-0.041296136
8	0xbcc17a60	-0.023617923
9	0xbd67ee09	-0.056623492
10	0xbe01e1a6	-0.12683734
11	0xbcc45940	-0.023968339
12	0xbd847471	-0.06467522
13	0x3d8eb393	0.06967845
14	0xbd698a8a	-0.057016887
15	0x3ec138cb	0.37738642
16	0xbce6d1d3	-0.028176224
17	0x3f8a5142	1.0806048
18	0x3e671cf7	0.22569643
19	0x3d1f2dc6	0.038862012
20	0xbcc50c70	-0.024053782
21	0x3b5a6ba8	0.0033328328
22	0x3c89c545	0.016817698
23	0xbc418a41	-0.011812747
24	0xbddc93e6	-0.10770397
25	0xbc9948ea	-0.018711526
26	0x3d705ca7	0.05868211
27	0xbdb6e0a2	-0.08929564
28	0x3d962913	0.07332053
29	0x3ce97480	0.028497934
30	0x3c9a7341	0.018853785
31	0x3dacdaeb	0.08440193
32	0xbd486607	-0.048925426
33	0xbde57422	-0.11203791
34	0xbd0c86af	-0.03430813
35	0xbcf99e0c	-0.03047087
36	0x3e6759a9	0.22592796
37	0xbd8de765	-0.06928901
38	0xbd9ad5e7	-0.0756033
39	0x3d093a45	0.033502836
40	0xbda66d7c	-0.08126351
41	0x3ec2a3db	0.38015637
42	0xbd3a9124	-0.045548573
43	0x3d0795d2	0.033101864
44	0x3d63d78c	0.055625483
45	0xbbe6cb47	-0.0070432755
46	0x3f29ba87	0.66300243
47	0x3d7d3b6b	0.061824244
48	0x3d373ba0	0.044734597
49	0x3d245984	0.04012443
50	0xbd8085f9	-0.06275553
51	0x3d961315	0.07327858
52	0x3d758b1b	0.059947114
53	0x3d857fa3	0.065184854
54	0xbd92c5d4	-0.07166639
55	0x3cd628eb	0.026142558
56	0x3da64134	0.08117905
57	0xbdab5ffb	-0.08367916
58	0xbd1c5610	-0.038168013
59	0xbd625cc2	-0.055264242
60	0x3d21ea88	0.039530307
61	0x3cf0694b	0.029347083
62	0xbc77061b	-0.015077139
63	0x3ca097ca	0.019603629
64	0x3d6dfd34	0.0581028
65	0xbc45e099	-0.012077474
66	0x3e662dd4	0.2247842
67	0xbda07556	-0.0783488
68	0x3f2f2826	0.68420637
69	0xbd395cf5	-0.045254666
70	0x3f96f4f0	1.1793499
71	0xbcdd27ec	-0.026996575
72	0xbd319b24	-0.043360844
73	0x3f0775e7	0.5291428
74	0x3d579a28	0.05263725
75	0x3cafb3f3	0.021448111
76	0x3e31c821	0.173615
77	0xbd0d0678	-0.034429997
78	0x3cce6021	0.025192322
79	0x3cc72598	0.024309918
80	0xbd0e3bbe	-0.034724943
81	0xbdb6062f	-0.08887898
82	0x3d0de838	0.03464529
83	0x3dac59c5	0.0841556
84	0x3d32e080	0.04367113
85	0xbbebb3d5	-0.0071930685
86	0xbcf3f863	-0.029781526
87	0xbd34afcf	-0.044112977
88	0x3c417bd5	0.011809309
89	0xbd68c24b	-0.056825917
90	0x3c247b56	0.010039171
91	0xbd960365	-0.07324866
92	0xbdb057be	-0.086104855
93	0x3d9d0f2d	0.0766891
94	0xbe22b2e8	-0.1588856
95	0x3e44a4c4	0.19203478
96	0x3d0ca1c7	0.03433397
97	0x3c78a089	0.015174993
98	0xbdebd2a9	-0.115147896
99	0x3bea71b8	0.0071546696
100	0x3d677601	0.05650902
101	0xbdc9a3b7	-0.09845679
102	0x3d87b634	0.06626549
103	0xbc074430	-0.008256003
104	0xbceb5a3a	-0.028729547
105	0xbd9387b1	-0.072036155
106	0xbe10a07f	-0.14123724
107	0x3ed8dd2e	0.42356247
108	0x3d6e5153	0.058183026
109	0xbde25577	-0.110514574
110	0x3b62df99	0.0034618138
111	0x3c25142d	0.010075611
112	0xbc5dc7c0	-0.013536394
113	0xbce5e10e	-0.028061416
114	0x3baa0f1c	0.0051897895
115	0x3e092839	0.1339425
116	0xbdd1404c	-0.10217342
117	0x3e1146f8	0.14187229
118	0x3f0b9b83	0.5453417
119	0x3d4f4bb5	0.05060931
120	0xbd98b05d	-0.074555136
121	0xbd005a47	-0.031336095
122	0xbd5e7d02	-0.054318435
123	0xbdc9dcfb	-0.09856602
124	0x3f6a2df5	0.91476375
125	0xbc8e8561	-0.017397584
126	0x3c80be42	0.015715722
127	0xbdd60875	-0.10450832

fc3.weight f4 [6, 128]
0	0xbc9be8d2	-0.019031916
1	0x3832d7a3	4.2639334e-05
2	0xbc7f2aa4	-0.015574131
3	0xbcee579b	-0.029094508
4	0x3d5c9b77	0.0538592
5	0xbd82510a	-0.06363113
6	0xbbe11953	-0.006869474
7	0x39dc5751	0.00042026726
8	0xbdb37e85	-0.08764366
9	0x3d24c96f	0.040231165
10	0x3b74d185	0.0037356329
11	0xbe06860e	-0.13137075
12	0xbbb1d0f8	-0.0054265223
13	0xbcd75dbb	-0.026289811
14	0x3d69061d	0.056890596
15	0xbe051c39	-0.12999047
16	0xbd36522e	-0.044511966
17	0xbec609a0	-0.38679218
18	0xbd94a639	-0.07258267
19	0x3cf5a3de	0.029985365
20	0xbd6378df	-0.055535194
21	0xbd158efc	-0.036513314
22	0xbcd4f2e8	-0.025994733
23	0xbd7fb6a4	-0.06243004
24	0x3d40f916	0.047112547
25	0x3d41c31f	0.047305223
26	0x3c253359	0.010083043
27	0xbd96a15e	-0.07354997
28	0xbcc56d64	-0.024100013
29	0x3c553836	0.01301389
30	0x3d1b7f72	0.03796334
31	0xbd18b903	-0.037285816
32	0xbdbc92b8	-0.09207672
33	0xbca155b3	-0.019694185
34	0xbc280c8f	-0.0102569
35	0x3d047a1e	0.032343023
36	0xbd5ad79b	-0.053428274
37	0x3c14a617	0.009072802
38	0x3d720014	0.059082106
39	0x3d8bacfa	0.06820102
40	0x3d2c8017	0.042114343
41	0xbde6d806	-0.11271672
42	0x3d8d0929	0.06886513
43	0xbcc771d1	-0.024346264
44	0x3c90e250	0.01768604
45	0x3d91d40b	0.07120522
46	0xbe5cc336	-0.21558842
47	0xbcb4ad6a	-0.022055347
48	0xbca22889	-0.01979472
49	0x3d8c31a0	0.06845403
50	0xbd2b528a	-0.041826762
51	0xbd4bcb6d	-0.04975455
52	0x3d112221	0.03543294
53	0x3d77006b	0.060303133
54	0xbca5d322	-0.020242278
55	0xbc9387c9	-0.018009083
56	0xbd5f5926	-0.054528378
57	0xbc3be59a	-0.0114683155
58	0xbd8f2df1	-0.069911845
59	0xbd140122	-0.036133893
60	0x3d4db55b	0.050221782
61	0xbbd75d07	-0.006572369
62	0x3d8d2af8	0.06892961
63	0x3d2063ec	0.039157793
64	0xbd309dc7	-0.04311922
65	0xbd0a1ce5	-0.033718962
66	0xbd5ffb2c	-0.054682896
67	0x3d88ab17	0.06673258
68	0xbe84cbe0	-0.25936794
69	0x3d70f5d1	0.05882818
70	0xbec65af2	-0.3874126
71	0xbd9b586a	-0.07585223
72	0xbc194fbe	-0.009357391
73	0xbe8fe721	-0.28106025
74	0xbbb6a093	-0.005573341
75	0xbcadee1c	-0.021231703
76	0x3c3dff0f	0.011596455
77	0xbd99d0a2	-0.07510497
78	0x3ba16a20	0.004925981
79	0x3d3861c3	0.045015108
80	0xbd5761fd	-0.052583683
81	0x3da07b40	0.07836008
82	0x3d44a780	0.048011303
83	0x3c2f291d	0.0106909545
84	0x3db3f692	0.08787264
85	0xbd5e8327	-0.054324295
86	0x3d3a50ae	0.0454871
87	0x3d491dcd	0.049100686
88	0xbceba81d	-0.028766686
89	0x3d9e15bf	0.077189915
90	0x3d910b5c	0.07082245
91	0x3c230503	0.009949925
92	0x3db2e36d	0.08734784
93	0xbd0d16b6	-0.034445487
94	0xbd8301d0	-0.0639683
95	0xbd9bed56	-0.076136276
96	0xbd144b54	-0.03620465
97	0x3d41afeb	0.04728691
98	0xbca64555	-0.020296732
99	0xbd8d4516	-0.06897943
100	0xbd072817	-0.032997217
101	0xbd3c6fd2	-0.046005078
102	0x3c0395d5	0.008031328
103	0xbce7edae	-0.028311577
104	0xbc433c6e	-0.011916263
105	0xbc35445d	-0.011063662
106	0x3c9f087b	0.019413223
107	0xbdf6b9f0	-0.120471835
108	0xbda63f1d	-0.08117507
109	0xbc18c2b2	-0.009323763
110	0x3cb56bac	0.022146069
111	0x3d2e16f4	0.04250236
112	0xbd2060bc	-0.039154753
113	0x3d5811a6	0.052751206
114	0xbd906a2b	-0.070515
115	0xbd23a51b	-0.03995238
116	0x3c25766d	0.010099036
117	0xbafa2e60	-0.0019087307
118	0xbdd85ef7	-0.10564988
119	0xbd725be5	-0.05916967
120	0x3d80a697	0.062817745
121	0x3c807b23	0.015683716
122	0xbd0623e9	-0.03274909
123	0x3ce253ad	0.02762779
124	0xbeb0825a	-0.3447445
125	0xbd3e928f	-0.046526488
126	0xbaddfcc2	-0.001693629
127	0x3db2b851	0.08726562
128	0xbbf5ccf0	-0.007501237
129	0xbbf2518d	-0.0073949755
130	0x3d57d494	0.052692965
131	0x3d533766	0.051566504
132	0x3d9b954b	0.07596835
133	0xbd6837e3	-0.056693923
134	0x3d482b6b	0.04886953
135	0xbd233b72	-0.039851613
136	0x3b070d47	0.002060728
137	0x3cbcd08f	0.023048667
138	0x3a81069f	0.0009843892
139	0x3caf1d55	0.021376291
140	0x3bacbbb8	0.0052714013
141	0xbc86caa8	-0.016454056
142	0xbd487991	-0.04894406
143	0xbd607dd8	-0.054807514
144	0x3d44ebee	0.048076563
145	0xbecef9a9	-0.4042485
146	0xbd8bed18	-0.068323314
147	0x3a201356	0.0006106397
148	0x3cbc2795	0.022968093
149	0xbb11732f	-0.00221939
150	0x3d010e18	0.03150758
151	0xbd0b7326	-0.03404536
152	0x3cdd3414	0.027002372
153	0xbcb24948	-0.021763459
154	0xbc77a392	-0.015114682
155	0xbdab3c18	-0.08361071
156	0x3d750b55	0.05982526
157	0x3d1e051a	0.038579084
158	0xbd0aba69	-0.03386918
159	0xbd790b58	-0.060801834
160	0x3c2a949c	0.010411408
161	0xbbd1b88f	-0.006400175
162	0x3c4453b9	0.011982852
163	0x3d75d880	0.060020924
164	0xbda0c88f	-0.078507535
165	0xbd1188db	-0.035530906
166	0xbd8eb905	-0.069688834
167	0x3d5f8922	0.05457414
168	0x3b8a8332	0.0042270655
169	0xbd843a55	-0.064564385
170	0xbd55002a	-0.05200211
171	0xbd234ea3	-0.039869916
172	0xbd8fc0e7	-0.07019215
173	0xbd0c1888	-0.034203082
174	0xbe7e54be	-0.24837014
175	0x3cd773e8	0.026300386
176	0xbdb967c6	-0.09052996
177	0xbd8be2aa	-0.06830342
178	0xbda38cf8	-0.07985872
179	0xbd51fcb1	-0.051266376
180	0xbc8c96f6	-0.017161828
181	0xbd9cbbaf	-0.07652985
182	0x3cfeeea4	0.031119652
183	0xbcdc3423	-0.02688033
184	0x3a6a6d87	0.00089427124
185	0xbb1ad5e2	-0.002362602
186	0xbd552f27	-0.05204692
187	0xbc9d4c4b	-0.019201418
188	0xbd321746	-0.043479227
189	0xbd997f00	-0.074949265
190	0xbd51f3ec	-0.051258013
191	0x3d2ae7d8	0.04172501
192	0x3c4d8df0	0.012546048
193	0x3d976213	0.07391753
194	0xbd9ddb8f	-0.07707893
195	0xbd16dfe8	-0.036834627
196	0xbe4b2838	-0.19839561
197	0x3d51a217	0.05117997
198	0xbec0944a	-0.37613136
199	0x3c0198f7	0.007910005
200	0xbce5e8ce	-0.028065111
201	0xbe4bd5d3	-0.19905786
202	0x3dad23c2	0.08454086
203	0x3d0588ea	0.032601275
204	0xbd43d8c9	-0.047814164
205	0xbd3be3b7	-0.045871463
206	0x3d084d38	0.033276767
207	0xbc5a9f26	-0.013343608
208	0xbd6251bc	-0.05525373
209	0x3c873fac	0.016509853
210	0x3d48a96d	0.048989702
211	0x3da4123b	0.0801129
212	0xbd7076d3	-0.05870707
213	0x3d83b7bb	0.06431528
214	0x3d9b02dd	0.075689055
215	0xbcf0dd5c	-0.029402427
216	0xbc8bd3d0	-0.017068774
217	0xbc5572bc	-0.013027843
218	0x3d83854f	0.06421911
219	0xbd172da4	-0.03690876
220	0x3c174754	0.009233315
221	0x3d2ed491	0.042683188
222	0x3d958bd3	0.0730206
223	0xbd7e58a3	-0.06209625
224	0x3c130a82	0.008974673
225	0x3d82df23	0.06390216
226	0x3d3e10f8	0.0464029
227	0x3d2b4409	0.04181293
228	0xbd41aecf	-0.04728585
229	0x3bfbc6e5	0.007683622
230	0x3d192044	0.037384287
231	0xbcb6eb7d	-0.022329086
232	0xbd969f70	-0.07354629
233	0x3bc708fe	0.00607407
234	0xb869b33e	-5.571846e-05
235	0xbde50cba	-0.11184068
236	0xbd4d4ffd	-0.05012511
237	0xbd02fa84	-0.03197719
238	0x3a636826	0.0008674882
239	0x3c98ba20	0.018643439
240	0xbc65342c	-0.0139894895
241	0xbd38660d	-0.0450192
242	0xbcf41974	-0.029797293
243	0xbc2eda29	-0.010672131
244	0x3d2bc0f3	0.041932058
245	0xbc9ef27f	-0.01940274
246	0xbde38547	-0.11109405
247	0xbd732b8c	-0.0593677
248	0x3d480f20	0.04884255
249	0x3ca88395	0.020570556
250	0x3db2f3cf	0.08737909
251	0xbdbec8e8	-0.093156636
252	0xbeb8e0da	-0.36109048
253	0x3c9425be	0.018084403
254	0xbda34ec4	-0.07974008
255	0xbd730ee9	-0.05934039

fc3.bias f4 [6]
0	0xbf491de4	-0.78561234
1	0xbf3996d4	-0.7249577
2	0xbf2a8a85	-0.66617614
3	0xbf5a6960	-0.8531704
4	0xbf9c80fa	-1.222686
5	0xbf97bc81	-1.1854402
