agent_code/DQN_agent/my-saved-model.pt (torch, 959255 bytes, 6 tensors)

fc1.weight f4 [128, 1734]
00000000: 9eb1 d7bb 9ec3 d4bb 8b60 d7ba 44b1 12bc
00000010: dbe4 65ba 34f8 053c 8cca b83c 0c24 6b3c
00000020: 0108 6cbb 5ab1 dd3c 63b2 66bc 7c8b 8b3c
00000030: 560d 8d3c 5baf bf3c fd5d 203b b55d 97bc
00000040: cc10 863c 1458 7a3a d73a 5ebb 8b1a c33c
00000050: e522 cebb 9d46 5dba fb24 eb3b d219 ad3c
00000060: a807 44bc d6df 713b 13cc 38bc 6551 afbc
00000070: 2133 13bc f90a 9bbc a1b5 b23c 213e c43c
00000080: cc1f 6fbc 6347 ae3c 1de4 74bc 5234 a63c
00000090: b343 133a 0c54 b53c 0b08 c13c bd60 393c
000000a0: 8d37 283c c059 bc3b 15db 4abb da3a d03a
000000b0: cd2b de3c d526 e4bb 929a cc3c b681 713c
000000c0: a33e 9c3c ed33 d239 1f20 07bc c1a9 403c
000000d0: 00f2 bebc 816e cbbb 8404 863a 6b79 94bc
000000e0: 623a acbb 03ff a7bc 66f7 893c 3fbe 2fbc
000000f0: 28fb 4ebc 7794 7f3c 826a bdbc 3ad8 5f3b
00000100: e93f 58bc fcff e23b 6d5d a53b 14c3 94bc
00000110: d072 e93b 5a8f 8b3c bd21 4ebc c56f 5ebb
00000120: 1e94 5e3c cca0 b13c 331c 39bb b4fb eebb
00000130: fd73 00bc 4462 dfb9 e128 eebb 7ab6 a8bc
00000140: a5ed b63c 323c 3dbc c7d1 91bc c4d9 aabc
00000150: 02e7 8abc 3ce4 4c3c b93f 223c 1c1a b7bb
00000160: b34f 07bc 154f 6a3c caee c23c bebb 603c
00000170: 2264 1bbc a78d 8bbc f8bd c03b dd1e 9cbc
00000180: e927 093c 991e a13b 2eb2 613b ef26 f43b
00000190: 8070 7a3c adf5 ac3c c8bc 2d38 92e5 e13b
000001a0: ad5e 49bc 6184 a5bc 1944 50bc c230 bebc
000001b0: 6f45 d83c 900d ca3b c77d 3439 d9e1 dcbb
000001c0: 1022 6bbc 5e60 cfbb a38b ce3c 6f78 b8ba
000001d0: 053a 75bc 57aa 9bbb c704 713c eb85 ed3c
000001e0: a2ea 7ebc 655a 50bc f4b7 913b d06d 4d3c
000001f0: f686 b83b 8ec6 b23b 28b7 9bbc d541 523c
00000200: a3cd a0bc ade1 9e3c 9b6e bfba b2af ad3c
00000210: baa6 f1bb 65f5 613c 96fb e8bb 8db5 73bc
00000220: ee57 663c 8f2a 0d3c 7a88 8b3c a3ae c13c
00000230: 8d9d 50bc b9f5 c2bb fafa b1bb 20c1 7bbc
00000240: 2320 23bb 7427 a5bc 61dd ad3c 1393 cc3b
00000250: 595b 593c 2945 7b3c c9ad 6d3c f138 3a3c
00000260: 88d5 3e3c 6236 813c 0a8c 98bc 9e14 5cbb
00000270: 1e2d 203c af9c f8bb 3889 5f3b 6e8e 943c
00000280: a54b 863b 1a53 a9bc 1ab7 5c3a 787f bbbc
00000290: edb1 05bc 24b1 c0bc 1ce5 b1bc 6b53 7a3c
000002a0: f345 b9bc f8b4 cd3a f512 1ebb fab4 803b
000002b0: ac35 313c 5d7e 4c3c 092c 95bc 0fba a73c
000002c0: c5df 4fba fc03 303c ca61 e23a b1d4 fc3b
000002d0: b5d3 fa3b 3fa3 b9bc 2122 22bc 9b1d ab3c
000002e0: a296 80bc 7cae 8abc 695e 2c3c 27d9 363c
000002f0: ec6f 563c ad28 aebb 0022 6bbb b4f7 db3b
00000300: b438 7f3c ed5f b43c 1503 d2bb bba2 683b
00000310: 26c3 31bb 98cd 8a3c 6407 d0bb eec3 a3bb
00000320: b64b ec3b 0586 29bc dbbf a8bc 5265 193c
00000330: eb08 cf3b 487c a9bc 1f6f e9bb 76e8 14bc
00000340: 546c 3f3c c73f 0fbc ab3a 543a fc12 bcbc
00000350: 6efe 383c 96a5 423c 9dfb e53c eb2f a83c
00000360: 58c9 42bc f9b8 c23c f123 b53a fe0d 053c
00000370: 0ce5 b1bb 8038 d43c e579 b3b9 4ec3 4d3c
00000380: 8c67 92bc 4725 b9bc dc9c 33ba 63ec b53b
00000390: ff3e 8a3a ed23 c9bb 8843 56bc dd88 583c
000003a0: 3d4b 6abc 7d1c 3fbc 00ce 32bb 544f 683c
000003b0: 51a6 96bc 4d56 e93c 3edd 03bc 74e0 af3c
000003c0: b41e 6fbc d031 293c 02d8 dd3c 2ab6 883c
000003d0: 809d ca3c 3bd0 b1bc 9dc9 4c3b 2332 a43c
000003e0: 40df 08bc ab43 a8ba 93aa 42bc 9e9c d0bb
000003f0: 1fbb 08bc 0d9d 813c e37a 613a b4c3 483c
-0.006582453 -0.006493046 -0.001643197 -0.008953396 -0.0008769759 0.008176852 0.02255752 0.014351856
-0.0036015513 0.027062107 -0.014080617 0.017034285 0.017218273 0.023399046 0.0024470084 -0.0184773
0.016365431 0.0009549868 -0.0033909583 0.023816368 -0.006290781 -0.0008441003 0.0071760393 0.021130476
-0.011964716 0.0036907098 -0.011279124 -0.021401117 -0.008984358 -0.01892613 0.021815123 0.023955407
-0.014594983 0.021274274 -0.014946965 0.02028862 0.0005617693 0.022134803 0.023563405 0.011314568
0.010267151 0.0057480037 -0.0030953337 0.001588668 0.027120495 -0.006962637 0.024976049 0.014740398
0.019072836 0.0004009301 -0.008247404 0.0117592225 -0.023308754 -0.0062082415 0.0010224734 -0.018124303
-0.005255983 -0.020507341 0.016841602 -0.010726511 -0.0126331225 0.015599362 -0.023122076 0.003415598
-0.013198831 0.0069274884 0.0050465376 -0.018159427 0.0071242824 0.017036129 -0.012581286 -0.0033941132
0.013585119 0.02168312 -0.0028245568 -0.007293189 -0.007840154 -0.00042607088 -0.0072680567 -0.020594824
0.022330115 -0.011549996 -0.017800225 -0.020855792 -0.016955856 0.012505587 0.009902888 -0.0055878293
-0.008258748 0.014301081 0.023795504 0.013716636 -0.009484323 -0.017035319 0.005882021 -0.019057686
0.008371332 0.0049169776 0.0034438479 0.0074509303 0.015285611 0.021113241 4.142223e-05 0.006893822
-0.012290639 -0.020204725 -0.012711548 -0.023216609 0.026400296 0.0061661676 0.00017212993 -0.0067407903
-0.014351383 -0.0063286265 0.025213068 -0.0014073978 -0.014967446 -0.0047505307 0.014710612 0.028994521
-0.0155588705 -0.012716864 0.0044469777 0.012538388 0.005631323 0.0054557985 -0.019008234 0.012833078
-0.019629305 0.01939472 -0.0014605107 0.021201942 -0.0073746117 0.013791417 -0.0071100695 -0.014874828
0.01405905 0.008616104 0.01703285 0.023642844 -0.0127328755 -0.0059497026 -0.00543153 -0.015365869
-0.002489098 -0.020160414 0.021223726 0.0062431186 0.013266408 0.015336313 0.014506766 0.011366115
0.0116475895 0.015773002 -0.018621463 -0.0033581625 0.009776382 -0.0075870375 0.0034108888 0.018134322
0.004098373 -0.020669509 0.0008419618 -0.02288793 -0.008160097 -0.023521967 -0.021715693 0.015278677
-0.022616362 0.0015694192 -0.0024120186 0.003927824 0.010816019 0.012481299 -0.018209474 0.020474462
-0.00079297676 0.010743137 0.0017271575 0.0077157845 0.007654632 -0.02266085 -0.009895832 0.02088814
-0.015696827 -0.016928904 0.010520556 0.011160172 0.013088208 -0.0053149075 -0.003587842 0.006712878
0.015577484 0.022018397 -0.006409059 0.0035497386 -0.0027124374 0.016943738 -0.0063485373 -0.004997722
0.007211174 -0.010346894 -0.020599296 0.009362536 0.006318202 -0.020689145 -0.0071238424 -0.009088626
0.011683542 -0.008743233 0.00080959004 -0.022958271 0.0112911295 0.011880299 0.02807408 0.020530662
-0.011888824 0.023769842 0.0013819915 0.008121012 -0.005428916 0.025905848 -0.0003423236 0.012558771
-0.01787164 -0.022600783 -0.0006851682 0.005551861 0.0010547339 -0.006138316 -0.013077624 0.0132162245
-0.014300165 -0.011664507 -0.002728343 0.01417907 -0.018389853 0.028483534 -0.008048354 0.021469332
-0.014594723 0.010326818 0.02708054 0.016688425 0.024733305 -0.021705737 0.00312481 0.020043438
-0.008354008 -0.001283755 -0.011881488 -0.0063663265 -0.008345394 0.015821958 0.00086013804 0.0122536905

fc1.bias f4 [128]
00000000: c409 ebbc 1518 79bc 2699 57bd 045c 3cbd
00000010: 024a 1cbd 2fec 48bc 9af6 a23a da59 04bd
00000020: e8f4 dabc 4ed7 efbc ccb3 4abc 20f7 8ebd
00000030: a69e 103c 4461 99bd f910 19bd cacf 89ba
00000040: c3cb 12bd 6071 473a 414e b1bb bd41 8ebc
00000050: 4570 153c 4a74 ddba 4b7d 49bd bf33 a0bc
00000060: 3a18 9aba 57dd 05bc ffff 2cbd 4031 51bd
00000070: 9e53 b0bb 2132 63bc 4af2 353b 649c 3f3c
00000080: 1043 9cbc 0fa4 9bbc 91d7 39bc 9a8d 40bc
00000090: 67a1 a3bd 5ede 9abd 52a8 47bd b6f7 a1bd
000000a0: c6db 2f3c 34a2 53bd deb3 773c 3a37 81bd
000000b0: e13c 80bd 4e78 1abb e8c6 42bc 6f67 e3bb
000000c0: 7e83 d6bc 4b01 3c3c 009c 833c 6747 0abc
000000d0: 761f 30bd d6f3 bf3b 2af6 51bc 0af7 833b
000000e0: 35fa 1abd cab9 2fbd 36fa 50bd 9b9e 673c
000000f0: 8426 0abd 0ee0 e2bc 278f 04bc 4848 113d
00000100: 7ee5 893b 9a0a 83bd 17a5 babc 803a d0bc
00000110: 4780 dcbc 5260 bfbc b1e6 d2bc e0e4 b7bc
00000120: da1f 21bd f0e5 abbc f609 c93b de5c b2bc
00000130: 117c a9bd 0eef 4c3b f89f babc fa8d 29bc
00000140: a0ed e63a dc52 5cbc cfce 92bb a4b6 9dbd
00000150: 3504 8cbc 8d78 573c 4710 53bc 9336 6d3b
00000160: c1df 483c 1c17 47bd 7e30 96bc 37b7 66bc
00000170: d941 bbbc 4485 213c f773 1bbc 4cca 46bd
00000180: 9958 78bc 8a39 573c 5932 e4bc 00ac f8bc
00000190: 8d76 05bb d02d 0cbd 3b24 8c3c dcdd 31bb
000001a0: 7528 49bc acbf 003c 97c8 93bc 4dcb c8bb
000001b0: 2f3c 923c f904 87bd 5785 f33b dc24 813c
000001c0: ec28 acbc 4201 f639 2ccd 62bb 03fb ddbc
000001d0: d793 cabc 70a8 4bba 02f6 b73a d1ec 633c
000001e0: 2547 92bc ee5e 85bd 6821 7cbd 1083 e6bb
000001f0: 2c0f ea3b d2a1 203c c885 55bd c908 b43b
-0.02869118 -0.0152034955 -0.052636288 -0.04598619 -0.038156517 -0.012263342 0.0012433112 -0.03231225
-0.026728109 -0.02927747 -0.0123719685 -0.06980729 0.008826887 -0.07489255 -0.037369702 -0.0010514196
-0.035838854 0.0007608142 -0.00541094 -0.01736533 0.009121005 -0.0016895619 -0.049191754 -0.019555924
-0.0011756488 -0.008170447 -0.042236324 -0.05107236 -0.0053810617 -0.013866932 0.0027762824 0.011695001
-0.019074947 -0.018999128 -0.011342899 -0.01175251 -0.079897694 -0.075619444 -0.048744507 -0.07908575
0.01073355 -0.05166836 0.015118567 -0.06309362 -0.06261612 -0.0023570242 -0.011888243 -0.0069398205
-0.026185747 0.011474918 0.016065598 -0.008439875 -0.042998753 0.005857925 -0.012815038 0.004027252
-0.037836272 -0.04290179 -0.05101987 0.014136936 -0.033728138 -0.027694728 -0.008090771 0.035469323
0.004208266 -0.063985065 -0.0227838 -0.02541852 -0.026916636 -0.023361359 -0.025744768 -0.022448003
-0.039337017 -0.020983666 0.0061352206 -0.021772798 -0.08275617 0.0031270417 -0.022781357 -0.010348791
0.0017618425 -0.01344749 -0.00448022 -0.077008516 -0.01709185 0.0131513 -0.012882299 0.003619586
0.012260378 -0.048606023 -0.01833367 -0.014081768 -0.022858547 0.009858433 -0.009488097 -0.04853277
-0.015157842 0.013136277 -0.027856039 -0.030355453 -0.0020364851 -0.034223378 0.01710712 -0.0027140295
-0.012277712 0.007858198 -0.018039985 -0.006127751 0.017850963 -0.06592745 0.007431667 0.015764646
-0.021015607 0.00046921714 -0.0034607155 -0.02709723 -0.024728699 -0.00077689346 0.0014035108 0.013911442
-0.01785619 -0.06512247 -0.061555296 -0.007034667 0.007142922 0.009804206 -0.052129537 0.0054942113

fc2.weight f4 [128, 128]
00000000: 8a0b 37bd bda9 b33d f6ce 903e 945c ee3d
00000010: 041b a5bb 99ae 8fbd 9a25 983c c939 203e
00000020: 26f0 c53e 11c7 a2bd 2ced ca39 ab29 753e
00000030: 092b 0dbc ba6a 613e a5cc 9c3e 8f88 43bd
00000040: 29bb b4bd b4a1 88bd 6684 0e3d 299e 2a3b
00000050: 2ba6 5e3d 54fd 8cbd c411 be3e 3eb1 3dbd
00000060: f78b b83c ff70 00bd 10df 88bd cb72 cd3e
00000070: 61d5 55bc 7405 e3bd 69f6 ec3e 5189 313d
00000080: b837 67bd d830 403d 4077 043d 15da 5cbc
00000090: 6365 863e 8bef 713e de98 ab3c aebf b53e
000000a0: 53aa d5bc 6ec1 9f3e 74b5 9ebd ed32 b33e
000000b0: 6ca1 913e 42ec 79bb 3476 93bd 9daa 3b3d
000000c0: d299 173d 173c 8ebd 38c5 cfbc a930 a03d
000000d0: 5666 1a3d 00ee 873d 9a59 a63d d429 9c3d
000000e0: 8a0a 743e 1533 b33c 1ba6 933e cf3c acbd
000000f0: 772b e8bd 2085 52bd 3a5c 0ebc 28d4 7abf
00000100: 2f62 cebc 9be5 cf3e 633f e4bc 5b86 0bbd
00000110: 65d2 4cbd 0774 4a3d a72d a0bc 689c b03a
00000120: d70b c43e d457 a33d 797e cf3d acc2 1dbd
00000130: d309 933e 5a23 0c3d fb01 413d 7584 e33c
00000140: 7d37 543d 020c 593d 235d 3ebc 5878 833e
00000150: 43be 46bb f1a9 843d 6812 b9bc c9db 803d
00000160: 0365 6d3b 0d8d 343d 6b7a 643c 984a 51bd
00000170: 44ee 893b 85b9 9ebc ca9c 513c f4b3 8e3e
00000180: 1a7c fbbc d930 e13c 46ee f3bc 00b5 7ebc
00000190: 0813 f9bc 96e3 833e 373d 733c d266 a3bc
000001a0: 8431 b53d c5b1 5b3d 0654 db3c c043 8b3d
000001b0: 3175 333d 9566 c73d 4d4c 4fbc a55e 783c
000001c0: 8d1c 9c3c 1f29 00bd 016f 5abd 3a54 003b
000001d0: b30b 373c 1da2 05bd b85f 533d d3aa ed3c
000001e0: 652f 1abd 17a7 b13e ca38 8c3e b2e1 5abc
000001f0: 97ac 8abd 4dce 153d 27c3 2d3e 9480 f93c
00000200: c42c 29bd 5fd6 a5bc 3e94 c33d 2414 7e3e
00000210: 78de 453d fa8c f3bc 0dd4 d1bc 7c72 653e
00000220: 27a8 843e 85c5 9ebc 5208 9f3c 2d07 4f3e
00000230: ad2c 33bd bd33 31bc 3142 6abd 2377 9dbd
00000240: 16ce 2dbd 50bf 413d 741b 623d 0eda cc3c
00000250: 8554 133d 2223 3abd b7db 6a3e 45ca 0e3d
00000260: d7ca 99bd 63b7 dc3b 1bc0 c73c f975 1b3e
00000270: f5c3 483d 2090 da3b 96dc cb3e 4e4b a0bc
00000280: cbab 85bd 01a4 a03d f173 3c3d 25c4 83bd
00000290: eb0e 153d 916c 343e 269d 85bd 71ea 32bd
000002a0: a7ee 05bd 840e bcbc a9c0 e2bc 10ce 993d
000002b0: b5ca 983d b2c2 263d 455d 4a3d ae53 1b3a
000002c0: 3905 e53c e4d4 67bd 737a 81bd 6331 acbd
000002d0: ea2a 4fbd 7a85 f2bc 6d0d 39bd d13e b33c
000002e0: 3a02 7d3e a506 63bd 9fba 523e 16d5 21bd
000002f0: db82 8ebd 6921 83bd f080 433d 7610 70bf
00000300: bc3b 203c d385 6f3d ec8b 663d 02ce 983d
00000310: 6f31 8dbd 1266 263d b80c 713d 78d4 5a3d
00000320: ceae 04bd 7224 1cbd 0ce7 6d3d 3f58 fdbc
00000330: cfc7 223e 9ffb d5bc 0cc6 dc3c 24e0 463d
00000340: 5b41 e53c 991c aa3d 7161 d43c d2cf 06bd
00000350: 91e6 6e3d cfc7 853d aad1 413d 73cc ae3d
00000360: 1146 093d 1f79 273d f115 83bc 6018 96bd
00000370: eed4 c9bc 8f46 7d3d 9209 1bbe 2d52 633e
00000380: 09e0 01bc 8a26 b03c 9618 bb3d 14c9 453b
00000390: bf20 5d3d cbe5 f5bd b878 cd3c bd70 9fbd
000003a0: ba47 91bd 7e30 4fbd 91fc 85bc 6ade 893b
000003b0: 0f1c 83bc 6057 a93e 3f81 f53b faed 7cbd
000003c0: ffba 97bb 9cd1 e3ba 35bb 853d d7f2 3fbc
000003d0: 79c3 b2bd 3e43 9dbb b127 b7bc 0f9d b3bd
000003e0: be80 64bc 1615 b03d da89 693d 7c54 aabd
000003f0: 9ad5 0dbd ceb3 843d 4250 9f3e f086 5ebd
-0.04468874 0.087726094 0.282829 0.116387516 -0.005038621 -0.07015724 0.018572617 0.15647043
0.3865978 -0.07948125 0.0003870515 0.23941676 -0.008616217 0.22013369 0.3062488 -0.047737654
-0.088247605 -0.066714674 0.034794234 0.0026034212 0.05435769 -0.06884256 0.3712293 -0.04631161
0.022527678 -0.03135776 -0.06683171 0.40126643 -0.013051362 -0.110850245 0.46281746 0.043343846
-0.056449622 0.04692158 0.03234029 -0.013479729 0.26249227 0.23626535 0.020946916 0.35497802
-0.026082193 0.31202263 -0.07749453 0.3499979 0.28443468 -0.0038135205 -0.0720028 0.045817006
0.03701193 -0.06945055 -0.025362596 0.07821781 0.03769525 0.06637192 0.08122559 0.076251656
0.23832145 0.021874944 0.28837666 -0.08410036 -0.11336415 -0.05139649 -0.008688981 -0.97979975
-0.025193302 0.40604863 -0.027862256 -0.03406368 -0.050005335 0.04942706 -0.019553019 0.0013474347
0.38290283 0.07975736 0.101315446 -0.03851573 0.28718433 0.0342134 0.04712103 0.027773121
0.05181073 0.052989967 -0.011618885 0.25677752 -0.0030325807 0.06477726 -0.022591785 0.06291921
0.0036223538 0.04407983 0.013945202 -0.05109653 0.0042093117 -0.019375572 0.012793729 0.27871668
-0.030698825 0.027489113 -0.029776704 -0.015546083 -0.030404583 0.25759572 0.014846138 -0.01994649
0.08847335 0.05363633 0.026773464 0.06800032 0.043812934 0.09736363 -0.012652469 0.015159284
0.019056583 -0.031289216 -0.053328518 0.0019581453 0.011172223 -0.032625306 0.051604956 0.02901212
-0.037642855 0.34697792 0.27387077 -0.013359474 -0.067712 0.036573697 0.16968976 0.030456819
-0.041302457 -0.020243822 0.09549759 0.2481237 0.048307866 -0.029730309 -0.025613809 0.22406954
0.2590954 -0.019381294 0.019413147 0.20217581 -0.043743778 -0.010815558 -0.05719203 -0.07688739
-0.042432867 0.04730159 0.055201963 0.02500632 0.035969276 -0.04544366 0.22935377 0.034860868
-0.07509392 0.0067357286 0.024383595 0.15181722 0.049015004 0.006670013 0.3981673 -0.019567158
-0.065269075 0.07843781 0.046009008 -0.06433896 0.03639118 0.1761954 -0.06524114 -0.043680612
-0.0326983 -0.02295614 -0.027679758 0.075100064 0.07460538 0.04071302 0.049405355 0.000592525
0.027956592 -0.056599513 -0.063221835 -0.08407857 -0.050578035 -0.029604662 -0.04517882 0.02188054
0.2470788 -0.05542626 0.20579003 -0.039509855 -0.069585524 -0.06402857 0.047730386 -0.9377512
0.009779867 0.058477234 0.056285784 0.07461168 -0.06894194 0.040624686 0.05885002 0.053425282
-0.03239327 -0.038120694 0.05808167 -0.030925868 0.15896533 -0.026120959 0.026949905 0.0485536
0.027985265 0.08306236 0.02592537 -0.032913037 0.058325354 0.06532251 0.04731909 0.08535089
0.033514086 0.040886994 -0.016001673 -0.07328868 -0.024637666 0.061834868 -0.1514037 0.22199316
-0.007926949 0.021502752 0.09135549 0.0030179666 0.053986307 -0.1200672 0.025081977 -0.07785175
-0.07093759 -0.050583355 -0.016355785 0.004207422 -0.01600459 0.33074474 0.007492214 -0.06175039
-0.004630446 -0.0017381194 0.065298475 -0.011715612 -0.0872869 -0.0047992757 -0.022357794 -0.08770191
-0.01394671 0.08597772 0.05701623 -0.08316895 -0.034627534 0.064796075 0.3111592 -0.054327905

fc2.bias f4 [128]
00000000: 547e 2b3f e4d0 3a3f c086 cdbd cda8 74bd
00000010: 3be9 9ebd 3a31 8dbd 4daa 97be 281e 72bd
00000020: 07cc 28be 75f2 2a3f bca9 8cbe e344 84bc
00000030: 32f6 6fbe c18f 81bd 7c36 babd 997e d2bb
00000040: 06f4 16be 6c69 31bd 3027 08be 7f0f 00bd
00000050: 368f bebb 7e2c 89bc 38b9 ae3d b83f 22ba
00000060: 18c2 68bd 2c1a 77bd be96 6cbc 92ca f53e
00000070: 8bf4 86bc 9ef5 0b3f 53db b73e 7dde d23e
00000080: b20f 21bc 85a2 11be b6c6 58bd 996f 61bd
00000090: c506 e8bd ceba 90bd ceb4 c5bc 1c21 023f
000000a0: 397c 0dbe 908e 273e f65f afbd 9161 07bb
000000b0: 0621 a1bd 263b 00be 22b5 9ebc 0bc8 a2bc
000000c0: eac4 abbd e70d eabd a5e0 c7bc 6c37 30be
000000d0: 3ee7 c0bd adbe e03e 847d 87bd 4598 b33e
000000e0: 67d7 9ebd 7ea4 9cbd 76e2 3bbe 0fde 8abb
000000f0: 55f5 5e3e 2fb7 9abe 923e c03b 08fb cf3f
00000100: 9056 e3bd b040 1b3e edba 93bd a665 a4bc
00000110: a44c 0ebd 5c95 a6b9 4079 6abd c533 8ebd
00000120: 62b5 c9bc 78ba bdbd 36c6 03be fc1e ee3e
00000130: 962f bbbd 5926 d5bb 2490 e0bd 719f dbbd
00000140: 5e65 7abd 126a ac3d 913f 653e ab6c 973d
00000150: 3172 073f b74f edbd 4755 0f3f 0895 87bd
00000160: 4b24 1fbc 9e94 a93e a9cd 05bc feab c1bc
00000170: 11ca 05bd 65fe 4d3f 4317 97bd 71f5 9b3d
00000180: 31f1 bcbd e563 dbbe 82cd c4bd 5053 90bd
00000190: f575 53bc 07cf c53d 7e42 ca3e e4cb f1bc
000001a0: 0aac aabd 4352 0a3f a30b e5bd e4ba 13bd
000001b0: 0fef f73e 6c5a 3f3f 2742 6fbd 19e2 01bd
000001c0: 0119 02be 1624 3b3f 3f80 8c3e 6e34 a8bd
000001d0: e598 9dbd 5b47 60bd 77e8 4abc 1fcc 653e
000001e0: 5eac 90be 5d19 163e f84a 6dbd 406b 58bd
000001f0: 54f0 193e 7be6 a83e 930f 5cbc 7f9b 0dbe
0.66989636 0.7297499 -0.10035467 -0.059731293 -0.07759329 -0.06894155 -0.29622117 -0.05911079
-0.1648408 0.6677621 -0.27473247 -0.016146129 -0.2343376 -0.06326247 -0.09092423 -0.006423783
-0.14741525 -0.04331343 -0.13296199 -0.03126478 -0.005815412 -0.016744848 0.085314214 -0.00061893044
-0.056825727 -0.060327694 -0.014440237 0.4800611 -0.016474029 0.5467166 0.3590952 0.4118537
-0.009830402 -0.14222153 -0.05292388 -0.05503807 -0.11329416 -0.0706688 -0.024134066 0.5083177
-0.13816918 0.16362977 -0.08563225 -0.002065752 -0.07867627 -0.12522563 -0.01937348 -0.019870779
-0.08387168 -0.11428433 -0.024399111 -0.17208642 -0.09419106 0.43895474 -0.06615737 0.3507711
-0.077559285 -0.07648562 -0.18348107 -0.004237897 0.21773274 -0.30217883 0.005866834 1.6248484
-0.11100495 0.15161395 -0.07213388 -0.020068001 -0.03474106 -0.0003177327 -0.05724454 -0.06943468
-0.024622623 -0.09264082 -0.1286858 0.46508014 -0.09139936 -0.0065048155 -0.10964993 -0.107237704
-0.061131828 0.08418669 0.2238753 0.07393774 0.5290862 -0.1158747 0.559895 -0.06620222
-0.009713243 0.33121198 -0.008166709 -0.023641583 -0.03266341 0.804663 -0.07377484 0.076151736
-0.09225691 -0.4284965 -0.0960951 -0.070471406 -0.012906541 0.09658628 0.39503855 -0.029516168
-0.08333595 0.5403177 -0.1118386 -0.036066905 0.48424575 0.7474735 -0.058412697 -0.031709764
-0.1270485 0.7310194 0.27441594 -0.08213125 -0.07695178 -0.05475555 -0.0123845255 0.22441147
-0.28256506 0.14658113 -0.057932824 -0.052836657 0.15033084 0.32988343 -0.013431448 -0.13828848

fc3.weight f4 [6, 128]
00000000: 8cf4 e93e 44f2 163f a142 9b3a 532d 483d
00000010: 8269 12bc f1bb 10be ba6e 1fbd bd4b 91bd
00000020: e5a8 153c 6519 293f fbe5 66be 8345 823e
00000030: 9c42 b93e 0860 bd3e 8909 e63e e6b8 59be
00000040: 4812 543e 4cbe 1abd 8ae3 863e 558d 993d
00000050: f452 333e e5be bfbd 9dc8 49be a44d 963e
00000060: e6cc ca3d d33b cb3c c54c dc3d 087d 9c3e
00000070: 8417 a03d e6ba 3dbe cef2 c6be 6c3b 0ebd
00000080: 53fe 603d 0e33 723c 2e11 1b3d 59d8 8e3a
00000090: 2c55 dd3e c04d d43e 72c2 3d3d 4dce b8bd
000000a0: 4097 0c3e ce79 79be 5b85 a9be 4f66 11be
000000b0: d980 0abd 0548 2b3e d72d 5a3e f489 cbbc
000000c0: 9869 ccbb 81a6 fb3e f899 81bd a716 dbbe
000000d0: 1401 c4be f53b bfbe 5572 c8bd f55b c7be
000000e0: 3ddf 343d 298a 29bd 4b16 083e 62bf 1d3d
000000f0: 0e86 aebe 653f 733c 8934 4d3e dbd8 c3bd
00000100: 7309 ed3e 62d0 4dbe bce1 ccbd 68a4 0abd
00000110: 5d12 a639 273e 313c 4cfc 7abd 63e8 233b
00000120: 115f d9bd 948e 29bd ac05 143d abc6 ec3d
00000130: ad09 273d af3c 2abd 5ae9 f73c bd07 a23e
00000140: c490 7b3d bb25 f3bd 90a9 dabe 1be3 21be
00000150: 1c54 d43e db2a 9a3c e623 93bd ad76 323d
00000160: 91f4 ba3c 88ad 383e a36a b0bc 3bfe 8f3d
00000170: f72e 743e 3239 36bd a87e e33d f30e 9cbe
00000180: d963 bfbb 55bc fa3d 3497 9e3d 7dfe c13e
00000190: 5c64 253d 76dc b8be 4d68 303f 4b2d d3bd
000001a0: 802c adbc 5b9d 913e 1824 b4bd 9c42 ddbd
000001b0: ac6b b9be b3f3 eb3e 37c2 95bd 19d7 343d
000001c0: 716e 5e3c 09d5 263f f757 9e3e c2cb 003e
000001d0: 9f04 8b3e 6cf5 c33e e16e 71bd 3578 a3be
000001e0: dcb1 40be 0b41 9cbe 3df2 26bd c4df 233d
000001f0: 3088 a4be 0aa5 d53e 467b 1abc 6d20 0dbd
00000200: dee6 ff3e c161 b93e d60e a5bd 0761 aabd
00000210: bf87 403d 4874 9abd 2e87 86bd d2c1 d4bd
00000220: e323 453d 1bed 123f d285 023e d705 943e
00000230: 32a1 803e 7c17 8c3e c967 e83e bc25 85bd
00000240: 5904 7e3e fcc6 9cbb d069 173d e04c 083d
00000250: 4655 b03e 82ea 12be 2f5e 943d 3fe3 393e
00000260: a493 7cbd fd98 52bd 56af cf3c 668c a9be
00000270: d674 7bbc 50cc 4dbe 0d52 53be 153f 08be
00000280: afdc 253d 3304 cebc be4b c0bd 6059 bdbc
00000290: b9f8 dc3e 80aa c83e 95a8 fd3b e8d7 f6bd
000002a0: 5963 b33e d9b9 e1bd e903 c1be 48e8 0ebe
000002b0: f641 4bbe 4a89 b33e a706 5a3e 5b86 0d3d
000002c0: 78da 0cbc 176a 093f a618 533d f54e 78be
000002d0: 0987 adbe ad75 a0be f753 5dbd 8d45 e0be
000002e0: 3894 9e3c ab43 a8bd 9bb1 69bd ff80 a93d
000002f0: 70df e6be 6f86 b5bd b223 b73d 8197 82be
00000300: 3a26 cb3e 012d afbd 5361 2dbd 913d c83b
00000310: 7158 3dbd 1da5 e6bd 014a 97bd 05ad 713c
00000320: 84ea 55bd 560e 273d 7994 ac3d 003d 87bd
00000330: e712 2dbd d15f 263d 3f35 533d 2961 c5bd
00000340: 1d79 a4bc a2e8 e8be 332d 9fbe 0a21 6fbe
00000350: 1852 a53e 7984 313c 840c 493e c8e4 7a3d
00000360: 020e 2c3c 2304 7abe 822e 3abc b375 923d
00000370: 91c9 6c3e 3f2e 08be 1b8d b73c f89f acbe
00000380: 41ee a93a b94d 963b 7f06 873d 735e d03e
00000390: 2892 d4ba 7812 8bbe 84f8 8b3e 5f91 b1bd
000003a0: eeef 93bb b13e d23e c61c 0abd 0598 9ebd
000003b0: 5b01 bdbe d696 a33e f96b b4bd db23 4fbc
000003c0: 3f66 26bd 10f9 ea3e da94 59be dab3 063e
000003d0: db2c c43e a374 003f 5399 243b 20eb 6abe
000003e0: c3a6 63bd 53c2 a7be cb24 90bd bbb7 d4bc
000003f0: 6b49 cfbe cc79 ca3e b1c7 c3bc 13c1 0bbd
0.45694387 0.5896342 0.0011845418 0.04887135 -0.008936288 -0.14134194 -0.038923956 -0.07094524
0.009134506 0.66054374 -0.22548668 0.25443658 0.3618363 0.3698733 0.4492915 -0.2126194
0.20710099 -0.037779137 0.26345474 0.0749766 0.17512113 -0.09362582 -0.19705434 0.2935611
0.099023625 0.0248088 0.1075683 0.3056414 0.07816985 -0.18528327 -0.3885712 -0.034724638
0.054930042 0.01478268 0.03785818 0.0010898217 0.43229043 0.4146557 0.046328016 -0.09023724
0.13729572 -0.24362871 -0.33109555 -0.14199184 -0.033814285 0.16726692 0.21306549 -0.024846055
-0.0062381737 0.4915047 -0.06328195 -0.4279072 -0.38282073 -0.3735043 -0.09787432 -0.38937345
0.04415821 -0.041391525 0.13289754 0.038512595 -0.3408665 0.014846657 0.20039572 -0.09562846
0.46296272 -0.20099023 -0.10003993 -0.033848196 0.0003167567 0.010818041 -0.061275765 0.002501034
-0.106138356 -0.04139574 0.03613822 0.115613304 0.040780712 -0.04156178 0.030262638 0.3164653
0.061417356 -0.11872431 -0.4270749 -0.1580929 0.4147042 0.018819263 -0.071845815 0.04357021
0.022821696 0.18034947 -0.021535223 0.070309125 0.2384604 -0.04448814 0.11108142 -0.30480155
-0.00584076 0.12242953 0.077436835 0.37889472 0.040378913 -0.36105698 0.6890915 -0.10311373
-0.021139383 0.28440365 -0.08795947 -0.1080372 -0.3621496 0.46084365 -0.07312434 0.044150446
0.013576136 0.65168816 0.30926487 0.12577727 0.27151963 0.3827318 -0.058943633 -0.31927648
-0.18817848 -0.30518374 -0.04075836 0.04000832 -0.32135153 0.41727477 -0.009428805 -0.03445475
0.49980825 0.36207393 -0.0805947 -0.08319288 0.047004458 -0.0754171 -0.06568752 -0.10388531
0.048129927 0.57393044 0.12746361 0.28910705 0.25122982 0.27361667 0.45391682 -0.06501338
0.24806346 -0.004784463 0.036966145 0.03327644 0.34440058 -0.1434727 0.072445266 0.18153094
-0.06166424 -0.051415432 0.025352161 -0.33114928 -0.01534768 -0.2009747 -0.20636769 -0.13305314
0.040493663 -0.025148487 -0.09389447 -0.023113906 0.4315851 0.3919258 0.007741044 -0.120528996
0.35036734 -0.11021776 -0.37698296 -0.13955796 -0.19849381 0.3506568 0.212916 0.03455196
-0.008597009 0.53677505 0.05153718 -0.2424887 -0.33892086 -0.3133978 -0.054035153 -0.43803063
0.019357786 -0.08216032 -0.057054143 0.08276557 -0.45092344 -0.08863532 0.08942355 -0.25506213
0.39677602 -0.08553506 -0.042329144 0.006110855 -0.046226922 -0.112619616 -0.07387162 0.014750724
-0.052225605 0.040785156 0.084267564 -0.06603432 -0.042254355 0.04061872 0.05156445 -0.096376725
-0.020077283 -0.45489985 -0.31089172 -0.23352447 0.32289195 0.010834807 0.1963368 0.06125334
0.010501387 -0.2441564 -0.011363627 0.071513556 0.23123766 -0.13298891 0.022406152 -0.33715796
0.0012964682 0.004586902 0.06593036 0.4069706 -0.0016217874 -0.27162528 0.2733804 -0.086703055
-0.004514686 0.41063455 -0.033718847 -0.07743839 -0.36915097 0.31951016 -0.08809657 -0.012642826
-0.040624853 0.45893145 -0.21248189 0.13154545 0.38315472 0.50177974 0.0025115802 -0.22941256
-0.05557896 -0.32765445 -0.07038268 -0.025966516 -0.404857 0.3954605 -0.023898931 -0.034119677

fc3.bias f4 [6]
00000000: 0ef6 c5bd 1b45 b5bd 76fd 2d3e d093 0f3f
00000010: 32ea 3fbf 3f73 e6bf
-0.09666072 -0.088510714 0.16991219 0.5608492 -0.7496673 -1.800392
