agent_code/small_DQN_agent/my-saved-model.pt (torch, 79127 bytes, 6 tensors)

fc1.weight f4 [128, 15]
00000000: 8c58 55be 1aa3 28bf 08f9 ad3f cd84 763f
00000010: ee24 c1bd c2f4 9fbd d753 e6bd 4ab8 42be
00000020: ba6f 803e 5649 c73d a86f 763e 8d2d db3d
00000030: 6fa9 24be 783f bd3d dff1 033d 30d7 d9bc
00000040: 2bb8 413e 2559 a63d 99dc 5abe 22e5 a0be
00000050: 8ffe 8fbe be12 8abe 5fc6 1e3e fde0 89be
00000060: ef98 d93a e632 3ebe 6b4f 5e3d 504f 1cbe
00000070: 0d8c f9bd 0723 30be 9fdf 8fbe b422 2a3f
00000080: 337c 3f3f aa81 ae3d 6b51 79be 8be0 933d
00000090: 6f28 69be 0efc 533d 19c7 0b3e dd39 9f3e
000000a0: 2234 03be 154d 833c 3ae6 673e b9dd 913e
000000b0: 8a3b 25be 495f 8ebe 10d1 02be e003 56bf
000000c0: c789 16bf f1bc 53bd a3f2 863d 1294 233b
000000d0: 5b91 a5be 7fda a3be 2443 c8bd 9a06 cfbc
000000e0: c541 c13d 02da a63d 32f3 e3be a39e 4a3d
000000f0: 250e 2ebe 1f81 01bf 5e1e 8f3f 0d77 c43e
00000100: d08e 0dbe 0621 4c3b a5a3 9c3e 444b cfbc
00000110: 6f65 69be ffaf 4fbd a9c8 0fbd d21d 05be
00000120: 0314 013c 5160 543e 6bf3 5a3c 5c24 673e
00000130: 81ec 423f 9e9d e23c 8e60 313e c3e4 b9be
00000140: a1f6 823e d86a c13e f024 73bd 2685 f63d
00000150: 9880 bebd 56d6 1abc 80d8 4c3e d949 ffbd
00000160: e81a edbc b058 30be 5e57 93bd c449 8ebf
00000170: 6581 923f 90fd 5c3f 9da8 9a3d 7519 8dbc
00000180: 0827 42be 632d 41be 7d62 493e 62bb e83d
00000190: 4a31 ddbc 71c3 cabe d65a 51bd 2f0d 5bbc
000001a0: afc3 3b3e e781 a93e 970f 3e3e a254 c73e
000001b0: 54b9 2b3d c176 223e cebb 3f3e 87fd 80bd
000001c0: 7398 b4bd 31da c63d 5206 99be bc2a 71be
000001d0: b86e 8c3c 43a8 15be 702c 78be 5f74 c2bd
000001e0: 7707 2c3e 51a2 82be a7b4 683e e0ff 1e3e
000001f0: 727c 003e 5e2c 10bd 16aa 81be b66d 0d3e
00000200: 0b0a 75bc 22a6 9a3c 040c 163d 0208 1abe
00000210: dfa3 2cbd ade5 ebbd 53e6 00bc d3c8 a93f
00000220: a862 b13f 91c1 fdbe 83d5 e83e 4514 8a3d
00000230: c0ba bb3c 7931 c3bb 75aa a63e a7e8 0dbe
00000240: 8e31 a8bd 6ecd 3c3e 131c 1ebe 10f1 aabd
00000250: ae7b 3b3c 0f12 9b3c 59ae 713f c474 34be
00000260: 7385 1bbe a593 ccbe 39b9 1ebf 3947 debe
00000270: 28d1 8bbe 550b 3dbe dc38 5fbe ecb3 c7be
00000280: d0ad ac3d 4a83 42be 2257 5e3d 0511 43bd
00000290: b944 6e3e 05a9 663f 69f1 9c3d 7c3c 643f
000002a0: 4f51 123f 13e0 30be eea5 21be 59a1 2e3e
000002b0: 5003 b73d 18c6 b5bb 7baf 8b3d 386e 88bd
000002c0: c1ce 0cbc d04e 8ebe dd3e f5bb 1841 a93e
000002d0: f38c 373f c256 ae3f a595 3d3e 4244 b1be
000002e0: c71b bbbd e011 1d3d b3cb b63e 79c2 d8be
000002f0: d1b6 373e fd85 b8bd 3419 f83d d772 6a3e
00000300: 563d 06be 6c86 053e 9f09 95be ce76 d93e
00000310: 1048 c8be f05e 843f 73c3 563f f3b5 4dbe
00000320: 94b7 19bd 50ec 8dbe bdb6 573e c885 313e
00000330: e52a 87bd 93ed fdbd 2b96 69be 2474 fc3d
00000340: ef5c 563e d4bc 9cbd 76f8 15be 6e18 cebe
00000350: 699a 59bd e8ad 7fbd 4d15 18bd 5d74 383e
00000360: f044 29be b59a 50be 1172 5fbe 0e87 c63d
00000370: a6b1 cdbe 09aa 403e eb83 f93d 2b35 19be
00000380: 7f28 5abe f301 4abe c2f3 e03d 2615 ac3c
00000390: 36c5 fdbd 5401 243e bb41 78be 8aec 4abe
000003a0: ce96 36be 67ef 8cbe 62ff 48be 7012 2dbd
000003b0: 92e6 5a3e d623 44be 4bfa 0a3e e7e5 00bd
000003c0: 1929 2d3f 1fb0 b0bc bf26 9f3d dc16 50be
000003d0: e262 31be 6be3 0cbf e6fc efbe 9c50 c0bd
000003e0: 2f43 0f3d f933 43be df16 063e 7ccb de3c
000003f0: 5f60 eabd c9bd 1c3e 47c0 5fbc 3b39 6bbe
-0.20834559 -0.65873873 1.3591623 0.9629639 -0.09430872 -0.07810356 -0.1124646 -0.19015613
0.2508524 0.097307846 0.24066031 0.107020475 -0.16080259 0.09240621 0.032213088 -0.026591867
0.18917911 0.08122472 -0.21373214 -0.31424814 -0.281239 -0.26967424 0.1550536 -0.26929465
0.0016601364 -0.18574104 0.054274958 -0.1526463 -0.12184916 -0.17200862 -0.28100297 0.664592
0.7479889 0.08520825 -0.24347465 0.072205625 -0.2276933 0.05175405 0.13650168 0.31098834
-0.12812856 0.016027967 0.22646418 0.28489473 -0.16135994 -0.27807072 -0.12775064 -0.8359966
-0.5880398 -0.05169386 0.06589248 0.0024960083 -0.3233746 -0.32002637 -0.09778431 -0.025271703
0.09436373 0.081470504 -0.4452148 0.049467694 -0.16997583 -0.5058765 1.1181142 0.3837208
-0.1382401 0.0031147613 0.305936 -0.025304444 -0.227926 -0.050704952 -0.035103474 -0.12999657
0.007878306 0.20739867 0.013363699 0.22572464 0.76142126 0.027663048 0.17321989 -0.36307344
0.25578788 0.37776828 -0.0593614 0.12037115 -0.09301871 -0.009450516 0.20004463 -0.12465257
-0.028943494 -0.17221332 -0.07194398 -1.1116261 1.1445738 0.86324406 0.07551692 -0.017224053
-0.18960202 -0.1886497 0.19666477 0.113638654 -0.027001042 -0.39602235 -0.05111202 -0.013369842
0.18336366 0.3310692 0.18560635 0.38931757 0.04192479 0.15865614 0.18723986 -0.062983565
-0.0881814 0.097095855 -0.29887635 -0.23551458 0.017142639 -0.14614968 -0.24235702 -0.09494852
0.16799723 -0.25514463 0.22725163 0.15527296 0.12547472 -0.03519856 -0.25325078 0.13811383
-0.014956008 0.018878046 0.036632553 -0.15042117 -0.042148467 -0.115184166 -0.007867414 1.3264412
1.3858232 -0.49561742 0.45475397 0.06742147 0.022916198 -0.0059568253 0.32551923 -0.13858281
-0.08212577 0.1843774 -0.15440397 -0.0834676 0.011443062 0.01892951 0.9440666 -0.17622668
-0.15187626 -0.39956394 -0.6200138 -0.43413714 -0.2730801 -0.18461354 -0.21799034 -0.39004457
0.084315896 -0.18995395 0.054282315 -0.047623653 0.23268403 0.90101653 0.07663233 0.8915479
0.5715532 -0.17272978 -0.15785953 0.17053737 0.08936179 -0.0055472963 0.068205796 -0.066616476
-0.008594216 -0.27794504 -0.0074843005 0.33057475 0.71699446 1.3620226 0.18514116 -0.3462239
-0.091361575 0.038347125 0.35702285 -0.4233587 0.17940833 -0.09009931 0.12114182 0.2289537
-0.13109335 0.13039559 -0.29108903 0.42473453 -0.3911748 1.0341473 0.8389198 -0.2008894
-0.03752859 -0.27719355 0.21065803 0.1733619 -0.06599978 -0.12398829 -0.22811191 0.123268396
0.20933889 -0.076532036 -0.14645562 -0.40253013 -0.053125773 -0.06242171 -0.03712969 0.18013139
-0.16530204 -0.20371516 -0.21820857 0.096937284 -0.40174598 0.18814863 0.121833645 -0.14961688
-0.2130451 -0.19727306 0.10983993 0.021006178 -0.123911306 0.16016132 -0.24243824 -0.19816795
-0.17830965 -0.275264 -0.19628671 -0.04225391 0.21377018 -0.19154295 0.13572042 -0.031469252
0.67640835 -0.021568356 0.07771062 -0.2032122 -0.17322877 -0.5503451 -0.46872634 -0.09390375
0.03497618 -0.19062795 0.13094662 0.027196638 -0.114441626 0.15306772 -0.013656682 -0.2297105

fc1.bias f4 [128]
00000000: d8ef 68be 58b4 7bbe 5bf1 093e 87cc 373e
00000010: 59a8 e03e 77c1 a03e a956 f3bc be47 94bd
00000020: 7fbd aabd ed55 f33e 5f46 b9be 8ead 8b3e
00000030: 7907 893e 6431 5e3e 7cbf 0cbe 1284 ee3d
00000040: b94c 69bd a22a 2fbe 8b98 013f 87f5 abbd
00000050: 1bb1 49be c654 efbd 9efa d2bd cdc4 80bd
00000060: 666c 5abe e39f 1d3f 3c11 b63e 488d f33d
00000070: 17d7 873e 4f16 e63e 507a 503e c060 713e
00000080: 729e dcbd 9920 a63e f97b 60bd 03ce 103e
00000090: 8f13 ee3d 6be6 0f3e 1037 973e 42e0 83bd
000000a0: 90f5 afbe 927f 183f 5526 74be 75bc 963e
000000b0: 16f4 2ebe 7feb 7fbe 5724 7f3e 7ad0 01be
000000c0: 5fd9 4bbe afeb a4be 88b4 69be e6d0 e13d
000000d0: c6b2 393b 69db 383f f5e8 2fbe ec60 cd3e
000000e0: 0622 493e add7 61be 177a 86be f4b6 1fbe
000000f0: c44b bd3e cc23 d13e 842f 9ebe 9572 b73e
00000100: 2472 223e 3163 54bc c5ac 16be b7c6 48bd
00000110: 3da5 7abe 8232 9dbd 9d1b 133e fba9 5cbe
00000120: a987 e63e da71 383e 1136 4c3e 0428 463e
00000130: a22b 0f3e 86c5 463e 7c7b 713c 51d6 b7bc
00000140: 3a9b 53be 2003 213d f7d3 853e b66c 773a
00000150: 7655 533d 9491 bc3c 6570 523e a837 04be
00000160: 3d01 853e 734b 793d 688f 47be 2f12 013e
00000170: 5ab7 963e 5d0d 5fbd 1c0b aebc e6d9 b63e
00000180: ed66 76bd 3995 3b3e 043a 1e3e 0623 ffbd
00000190: 5878 a73e c281 5e3e dbf8 95bd 60d9 8d3e
000001a0: 9c5f b73e a248 97bb eb15 9bbe 04a4 103f
000001b0: dd92 b83b 36b0 c73d 2dd5 2cbe 815b 51be
000001c0: ff72 70be 50a0 8abe 3a5c 7f3e ac7f 93bd
000001d0: d223 48be fdeb 2f3e 0402 50be 8cb4 893e
000001e0: e95c 47be 79d9 a7bc 12b0 0abc 8c07 0f3e
000001f0: 80ea 163e b26b 143f 01fc e8bd 86bd 703e
-0.22747743 -0.24580514 0.13470976 0.17949115 0.4387844 0.31397602 -0.029704409 -0.07240246
-0.08336925 0.47526494 -0.361865 0.2728085 0.26763514 0.21698529 -0.1374492 0.11646284
-0.056957934 -0.17106107 0.5062339 -0.0839644 -0.19696467 -0.11686091 -0.10301708 -0.06287537
-0.21330413 0.6157209 0.35560024 0.11892182 0.26531288 0.44938895 0.20359159 0.23572063
-0.107724085 0.32446745 -0.05480573 0.14141087 0.11624824 0.14052741 0.29534197 -0.06439258
-0.34367037 0.59569657 -0.23842748 0.29440656 -0.17085299 -0.24992178 0.24916206 -0.12677184
-0.19907139 -0.32211062 -0.22822773 0.11026172 0.0028335317 0.72209793 -0.1717871 0.40113008
0.19641885 -0.2205493 -0.26265022 -0.15597135 0.36971867 0.40847623 -0.30895627 0.35829607
0.15863854 -0.012963102 -0.14714344 -0.049017634 -0.24477096 -0.07675649 0.14366002 -0.21549217
0.45025375 0.18012181 0.199425 0.19351202 0.13981488 0.19411287 0.014738914 -0.022441061
-0.20664683 0.03930962 0.2613828 0.00094385014 0.051595174 0.023018636 0.20550688 -0.12911856
0.25977507 0.06086297 -0.19488299 0.12604593 0.2943676 -0.054456104 -0.021245532 0.35713118
-0.06015675 0.18318643 0.15451819 -0.12457852 0.32709002 0.21729186 -0.07322856 0.27704906
0.35815132 -0.004616813 -0.3029016 0.5650027 0.005632742 0.097504064 -0.16878195 -0.20445062
-0.23481368 -0.27075434 0.24937525 -0.07202086 -0.19544914 0.17179866 -0.20313269 0.2689556
-0.19469036 -0.020489441 -0.00846483 0.13967723 0.14737892 0.5797683 -0.11376191 0.23509797

fc2.weight f4 [128, 128]
00000000: 7566 703d 3deb 8c3c 2b87 8ebd cc0b 553a
00000010: f162 99bc 1ff0 9b3a 2de1 003d a7e3 eabd
00000020: 716a a4bd 2999 08bc f045 dcbd ae04 aebd
00000030: a89a c3bd f796 6f3d 19cd 523d cd2c f63b
00000040: 1095 2f3c 1c83 98bd 3330 8fbb 2a51 8b3d
00000050: 687f 613d d42d 9ebd 1fcd 82bd 3525 81bd
00000060: dec3 373d 8d44 7d3d c05c a73c 2f54 cfbd
00000070: 18a8 ec3c 4ebe ef3b 7151 cd3d 96c8 703b
00000080: 5c7a 043d a6c2 73bd ad3e 9bbd 3d9a e4bc
00000090: 02ef 5cbd 69b3 563b abd4 81bd c874 833d
000000a0: d20e 3f3b 71de 22bd 3071 9fbc fac1 833c
000000b0: 55e3 5abb 1cd6 a7bd 0434 26bd 6ba6 34bd
000000c0: a82f 85bd 13ea a9bd 7023 493d f8a7 28bd
000000d0: 169e 50bd 0fbb 8e3c 2058 28bd af75 8abd
000000e0: 5594 30bd 624c e2bd c324 443d 1f9d 0bbd
000000f0: 2c30 32bd 1586 12bc 7d54 813c 47e7 a13d
00000100: 8a5d 99bd 19cd 683c d369 b43d 4158 2e3d
00000110: f9d9 bdbc 118b 89bd a65d 0bbd 92cb 393d
00000120: 9292 903c 3337 2a3d 4f03 1a3d d0da cd3b
00000130: 963b 2ebd ae33 afbd be1b ddbd 8221 723c
00000140: 69f4 8ebd 5f73 88bd d8e0 1dbd 454f 83bd
00000150: fc6a 013d 12f5 c0bd c643 803d 927e 343d
00000160: 6643 35bd 5877 dd3c 9c11 b4bc a5cc 433d
00000170: c900 273c 317c 62bd ea16 15bd cb01 a5bd
00000180: 5c43 eabc f21c 3b3a 32f7 7abb fdf5 87bc
00000190: e12e f3bd 40eb a4bd 720c b4bd 1307 debc
000001a0: bd19 a1bd be44 483d bf74 8a3c 8a9a 413d
000001b0: a1dd 8ebd c351 293d a8d2 43bd 2ab1 053d
000001c0: 9d38 8c3d 351f 85bd 5130 d3bd fc0b 7f3c
000001d0: 5b3f b9bd 033d a3bd abd0 ecbd 7719 343c
000001e0: 37ab a8bd 0992 063d 838b 37bd 02f7 a33b
000001f0: 4bea a2bd 3ad9 01be a024 b2bd 135d 9e3c
00000200: 84fc 63be 5b23 883d 4702 9bbd 4cea 703d
00000210: 26c1 1d3e 457a 3c3e 83ec eabd 7a11 80bc
00000220: fb33 e73a 5e98 a53d f351 4b3d 17fb 41be
00000230: 2d82 5c3e 9b19 83bd 9de7 4cbd 2485 a7bd
00000240: a976 813e eabb 3d3c 0326 993e 4447 243e
00000250: 3651 f7bc e324 14be 6812 0fbd 9a13 4ebc
00000260: 7e31 a0bd 9eec 733e a7bf 083e e6fb 76bd
00000270: c67c 93bd 87de 513e d55b 9fbd 0c5e d63d
00000280: 3e1d 773e 973c 083e 3ca4 f2bc 36e3 553e
00000290: 2969 a0bd 94eb 393c 35b2 5f3e a3d9 adbd
000002a0: df9f 11bc e86d 923e f529 e03b 1e15 ef3d
000002b0: be9b c1bd 4a0c 7cbc 6dae fdbd 73d7 a93c
000002c0: 5ac2 98bd c5e4 18be ef43 4d3d 1d05 96be
000002d0: 6f55 273d 85c7 983e 57e9 9f3d 0a0c 533e
000002e0: b709 033d 20da e8bc 2730 463c 7d61 14bd
000002f0: c8a8 a53d 0c5b 11be 4fbe 66bc 159b 993d
00000300: 7b66 cb3c 3d07 9dbd c98e 283e 8cfc e33d
00000310: 829a ffbb 016a 9bbc 8d8e 52bd 25aa 123e
00000320: 3fb2 f8bd 9bea 6c3e d383 1fbd 23bd 8dbd
00000330: be57 f4bd 60f7 dd3d 120a 94bc 2b12 c13c
00000340: fb70 663d 4134 5e3e a3ba e7bd 12d5 98bc
00000350: 8bb1 52be 5686 a7bd d6e4 6c3e 0250 60bc
00000360: b998 05bd 9972 e93d fbee 993d dd63 aabd
00000370: d3f9 8d3e 907b 793d b53c 64bd 5ce9 183f
00000380: 2546 293d 53ea 833e 8108 203e b7c5 b5bc
00000390: 5ea2 47bd 6b96 083d 638d 093e 49dc 303d
000003a0: a59e b0be 43c9 c13c 78ab a5bd cf45 ad3e
000003b0: d2e3 2e3e 2752 a9bd 0c75 943d 67ea f6bc
000003c0: 9ab3 07be 252b 5dbd dbb1 5ebd d371 11be
000003d0: e0b4 083e 98d7 5fbc 133e 083c 19a3 ff3d
000003e0: 21df fbbe ff41 90bd 288f 513e c86c 073d
000003f0: 67a2 193d 8265 6a3e 9148 143c 9e2c adbd
0.05869146 0.017202014 -0.06959375 0.0008127063 -0.018723937 0.0011897123 0.031464744 -0.114692025
-0.080281146 -0.0083372975 -0.10755527 -0.08496986 -0.09550983 0.05849358 0.051465128 0.007512665
0.010716692 -0.07446882 -0.0043697595 0.0680259 0.055053145 -0.07723585 -0.0638678 -0.06305925
0.044864528 0.061832953 0.020429969 -0.101234786 0.028888747 0.0073163873 0.10025299 0.0036740652
0.032343253 -0.059511803 -0.07580314 -0.027905578 -0.053938873 0.0032760745 -0.06339391 0.06418759
0.002915312 -0.039762918 -0.019463152 0.016083706 -0.003339966 -0.08195135 -0.04057695 -0.04410402
-0.0650323 -0.08296599 0.04910606 -0.041175812 -0.050932012 0.01742318 -0.041099668 -0.067607276
-0.04311021 -0.11049725 0.04788662 -0.03408539 -0.04350297 -0.0089431 0.015787357 0.07905441
-0.07488544 0.014209055 0.08809247 0.042564634 -0.023175227 -0.06715978 -0.034024857 0.045360155
0.017648015 0.04155655 0.03760081 0.006282188 -0.042537294 -0.08554779 -0.10796307 0.014778497
-0.06980211 -0.0666263 -0.038544506 -0.06411604 0.03159617 -0.094217435 0.06262927 0.04406602
-0.04425373 0.027034447 -0.021981053 0.047802586 0.010193058 -0.05529422 -0.036398806 -0.080569826
-0.028596573 0.0007137797 -0.0038294313 -0.016596789 -0.11874176 -0.08052683 -0.08791436 -0.027102983
-0.07866237 0.048893683 0.016901372 0.04726652 -0.06975866 0.04133774 -0.04780832 0.03263966
0.068467356 -0.06500093 -0.1031195 0.015566822 -0.09045287 -0.079706214 -0.11563238 0.010992399
-0.08235782 0.032854114 -0.044810783 0.005003811 -0.07954844 -0.12680522 -0.08698392 0.01933149
-0.22264296 0.066473685 -0.07568794 0.058817193 0.15405712 0.18406017 -0.11470892 -0.015633333
0.0017639393 0.08085702 0.0496387 -0.1894344 0.21534033 -0.06401368 -0.05002557 -0.081796914
0.25285843 0.011580447 0.29911813 0.1604281 -0.030190092 -0.14467196 -0.034929663 -0.012577916
-0.0782194 0.23820731 0.1335436 -0.060298823 -0.07201533 0.20495044 -0.077811874 0.10467157
0.24132249 0.13304363 -0.029619329 0.20887455 -0.07832558 0.01134767 0.21845324 -0.084887765
-0.008888214 0.28599477 0.006840939 0.1167395 -0.094535336 -0.015383789 -0.12386785 0.020732617
-0.074589446 -0.14931019 0.050113615 -0.29300776 0.04085296 0.2983972 0.07808178 0.20610061
0.031991687 -0.028424323 0.012096441 -0.036225785 0.08088833 -0.14194888 -0.014083459 0.07500283
0.02482914 -0.07667396 0.16460718 0.11132154 -0.007800401 -0.018971445 -0.05140548 0.14322717
-0.12143373 0.2313637 -0.038944077 -0.069208406 -0.11930798 0.10838199 -0.018071208 0.023568233
0.05626009 0.21699621 -0.11314895 -0.018656287 -0.2057554 -0.081799194 0.23134169 -0.01369095
-0.03261635 0.11398811 0.07516285 -0.08319829 0.27729663 0.060908854 -0.055721957 0.5973108
0.04132666 0.25764713 0.15628244 -0.022189004 -0.04873883 0.033346575 0.13432841 0.04317883
-0.34496036 0.02365554 -0.08089346 0.33842322 0.17079094 -0.082676224 0.072488874 -0.030141069
-0.13252106 -0.053996224 -0.054368835 -0.14203577 0.13350248 -0.013662241 0.008315581 0.1248228
-0.4919367 -0.07043838 0.20464766 0.033062726 0.037508395 0.22890285 0.009050504 -0.08455776

fc2.bias f4 [128]
00000000: fd33 d1bd 314b 093e 950c 433e ea72 2bbd
00000010: db74 b3bd 5ea1 aebd 62d9 dcbd 6dbd 433e
00000020: e85a 173e eccd 363e 1524 d4bd 63aa 883d
00000030: 9dca 503d e335 22be fa25 3c3e b852 f33e
00000040: 1d70 073d 35d3 463e 349e 7ebd 9c73 193e
00000050: d3ce 00bd 7818 603e 324f 023f 57f0 babd
00000060: 1bc1 65bd 7807 9e3e 48af 19bd c274 d5bd
00000070: c34b f53e 5d69 0abe 06fa 0bbe d22f c13e
00000080: a1db c8bd a09e 453e 7f12 183f 32a0 de3e
00000090: c845 f5bd e7a8 e63c dc31 9c3e 1633 09be
000000a0: 728f 10be ff37 1d3f 7008 db3e 1b3e 3c3e
000000b0: 863d bd3e 89df f53c 457f 343e 9817 07be
000000c0: aa36 903e d2e3 a63d f3b9 d0bc ce06 3b3e
000000d0: fba5 02be 501f 16be 34a9 f9bd d933 5abd
000000e0: 165a 8d3e 1324 a33c 6875 153d 51b3 af3e
000000f0: 2985 81bc eda3 793d c9d5 9b3e 1ce3 4c3c
00000100: 6744 4abc 11df 80bd ddd8 0b3b 0c4c f63c
00000110: 3803 be3d 1d89 c2bd 03f5 593e 994a 12be
00000120: 6c44 733e abb7 ec3e 9357 a33e 2a23 863e
00000130: 1633 163e 1d18 07be 79eb a33e d88d 113f
00000140: a113 e7bc a43b b83e a65b 03be e71a a2bd
00000150: c3a5 ab3e 10c1 4d3e de6c d2bd d6d8 9e3c
00000160: 522a 8dbd 8f2e d0bd a08a afbd 8cd3 67bd
00000170: 6a2f c13d c97e 023f ff23 c03e edec 8ebc
00000180: 925f cbbd 52ec a3ba ad35 c13d f078 013f
00000190: 8da2 1bbe ef39 c0bd 386c 0b3f b3a6 523e
000001a0: b1e8 5c3e f80f 193c f021 0ebe d3cc 763e
000001b0: 6610 9d3e d2c0 ea3d dd70 6b3e 6b92 e5bd
000001c0: d420 133c 2e4c f13b eaf5 88bd 1c50 cb3d
000001d0: d08c b5bc 0a0e 65bd 1192 8b3e 1789 383e
000001e0: b7e4 e23e c3e5 3e3e daf9 4b3e 88f8 583c
000001f0: bc82 263d cfb0 abbd b8e1 0abd e5f5 17bd
-0.10214994 0.1340759 0.19047768 -0.041857637 -0.08762523 -0.08526872 -0.1078365 0.19115229
0.14780772 0.1785199 -0.103584446 0.06673124 0.050974477 -0.15840869 0.18373862 0.47524047
0.033065904 0.19416507 -0.062162593 0.14985508 -0.031447243 0.21884334 0.5090209 -0.091278724
-0.056092363 0.30865073 -0.037520677 -0.104226604 0.47909364 -0.13516755 -0.13669595 0.37731797
-0.09807516 0.19298792 0.5940322 0.43481594 -0.119762 0.02815671 0.3050679 -0.13398394
-0.1411722 0.6141357 0.42779875 0.18383066 0.36961 0.030013816 0.17626674 -0.13192594
0.28166705 0.08148922 -0.025479292 0.18264315 -0.12758629 -0.14660382 -0.12190476 -0.053272102
0.27607793 0.019914662 0.03648892 0.34316495 -0.015810566 0.060947347 0.30436543 0.012505319
-0.01234541 -0.062925465 0.0021338977 0.030065559 0.09277958 -0.094988085 0.21284871 -0.14286269
0.2375657 0.46233878 0.3190275 0.26198703 0.14667925 -0.13192792 0.3201559 0.5685706
-0.028207602 0.35983002 -0.1282793 -0.079152875 0.33524904 0.20093179 -0.10274671 0.019390505
-0.068928376 -0.1016513 -0.085713625 -0.05659823 0.09432872 0.5097471 0.37527463 -0.01744696
-0.09930338 -0.0012506342 0.09434066 0.5057516 -0.15198727 -0.0938605 0.54462004 0.20571403
0.2157314 0.009342186 -0.13880134 0.24101572 0.30676574 0.11462559 0.22992273 -0.11209568
0.008979995 0.0073638177 -0.066875294 0.09927389 -0.022161871 -0.05592159 0.27259877 0.18021046
0.4431512 0.18642335 0.1991953 0.013242848 0.04065202 -0.08383333 -0.03390667 -0.037099738

fc3.weight f4 [6, 128]
00000000: d0a3 d73d a2f5 883e b8d4 9f3d ca48 893d
00000010: 93f3 29bd 9547 bc3e e2d9 51bd a55e bd3d
00000020: 4f51 023e ab2c 953e e7ff 703d 2e04 2d3d
00000030: c60b 0c3e 0d94 24bc 8a62 803e a99e 843e
00000040: 9210 ff3e 285a 633d f921 89bd f68f 2c3e
00000050: cfd2 7a3d bb95 833c 60cb 5d3e ed3d ca3c
00000060: 1b54 08bd 17f3 9e3e 7716 5bbc 4c1a 5c3c
00000070: 0b4c 053e b992 8ebd f03f 83bd e231 783c
00000080: 3e10 84bd c865 933e 995d 253e 2f9a ea3d
00000090: 97d8 803e 7c72 93bc ed9d a43d 9186 b73c
000000a0: 2a9e 89bd 5e64 7f3e 49b8 1f3e 431b 763c
000000b0: e296 7c3e 37ba 67bc 178d 953e 89ab 96bd
000000c0: 1df9 ac3e 551a 543e 16ed 9c3c 7dc4 b93d
000000d0: 89b4 873d b93f 113e a020 81bc da58 123e
000000e0: ebe1 f33d 7f5d 3f3e e736 db3c a41c 603e
000000f0: 75ce 143c 4615 6c3e d5d6 4b3e 8c8b ae3d
00000100: 7128 a3bc 6c9b c63d c936 98bd c9db fb3d
00000110: be9a 023f 7f7a 1f3d 0b2c 793c 08da 7f3d
00000120: 2c53 803e a083 863d 4d64 0e3e a498 5b3d
00000130: 5955 993e aa32 683d a576 c43e bcd2 703e
00000140: 9ec0 a43c c8b5 853d 6251 083d 6484 a7bd
00000150: 8d35 643e 23f0 d83d 953a 243d 4e28 c93e
00000160: 0305 8d3d 789e 5bbd 29b2 50bc 9337 75bd
00000170: 2fda c93e 7848 443e f1d9 003e 49ad 99bd
00000180: 401f fcbb d559 bcbc 35c0 243d fa63 9f3e
00000190: b07b c03d aae7 0dbb 3adc 6e3e 18b3 b13e
000001a0: 3aa7 8a3e eed4 ca3d 686b 5e3d dce5 4ebd
000001b0: cf15 813e 5c62 253e 16ed 793d 7b09 803d
000001c0: fbcc e83b b7c9 19bd 00d4 ed3c ec2c 143e
000001d0: 6947 a63b f157 06bb b32b 533e 5307 383e
000001e0: eb8f 5f3d 1ef3 333e aca8 c93e da70 963d
000001f0: 4b01 793e f520 023e a6b9 813b 9205 563c
00000200: 8767 7ebc 47ac 003e ddb7 ce3d d023 6dbd
00000210: b145 70bc e9d7 0c3e 80b9 4b3d 4477 043e
00000220: ed1b 5f3e a25b 03bd 68d2 863d 7ccb c23d
00000230: 6c91 80bc 1a86 063d f8cd 873d 0cf7 243e
00000240: 1e49 533e 9959 713d e423 b9bc 01cb e03d
00000250: acb0 143d c6dc ef3d ee64 233e cc40 01bc
00000260: e2f0 2cbd 773d ea3d 418a afbb cb92 ef3b
00000270: 652f e43d d367 fe3b 1b30 b13d efb4 483e
00000280: 2380 7d3c 1666 1c3e 233d 0f3e 778b 3a3e
00000290: 8f0e f53d 9163 ba3c e60e 943e bae1 0cbc
000002a0: 06fd b8ba d1e2 6f3e 0612 0b3f a4d6 163d
000002b0: ddfa b53e 4910 dbba 488e 213e 9930 e2bc
000002c0: 3df7 803e 21c3 053e a341 a83a 842c 093e
000002d0: 620f 283c 2ce8 9d3d 8c80 34bd f44a 31bc
000002e0: 2358 d93e 6f48 ba3d bea4 eabc 0f0e 183e
000002f0: 9dbf d63c 89b5 ef3e 1d30 0c3e 9dca 19be
00000300: c8af fdbc 68c5 d63d b0a4 a0bc 548f 373e
00000310: 6acb 80bd 7493 1f3d df9a 393e 8268 14bd
00000320: 425e 4f3e 4eda 403e 3ee5 b73d ab29 f63d
00000330: 9584 ae3e 0143 92bc 55f7 443e 4a36 703e
00000340: 9a11 4dbd 114b d03e 3a9e d03c 1756 b7bd
00000350: c6d5 e13e e189 ec3e c0c1 93bc 7012 153e
00000360: 926d be3d cd63 f6bc ccc9 8d3c 5b88 73ba
00000370: 9823 bd3e cadd 993d 3b96 343e 6395 3bbd
00000380: fbed 55bd d4c9 88bd e19a 283e ab5e ca3d
00000390: 88c7 61bd 24d2 d33c 9616 bc3e a0c1 bc3e
000003a0: dcea 373d 0caf d1bb 5f13 9c3c 1047 c03e
000003b0: a963 c83e 8134 1c3e 9fa5 be3d 27bb 74bd
000003c0: d547 2bbd 8cde a4bb ffaa 763c 2993 c43e
000003d0: fa16 1ebc 15b5 29bd f28a c4bc d572 8d3e
000003e0: 00c9 533e bfae e73d a9cf ce3d 0e3a 1f3a
000003f0: 5349 413e 82b8 9cbc 035e 37bd 1534 64bd
0.10529292 0.26749903 0.07804245 0.067033365 -0.041492056 0.36773363 -0.05123318 0.09246568
0.1272633 0.2913564 0.058837797 0.042240314 0.13676366 -0.010045064 0.2507518 0.25902298
0.4981733 0.0555059 -0.06695933 0.16851792 0.0612362 0.016062608 0.21659613 0.024687732
-0.033283334 0.31044838 -0.013372055 0.013434004 0.1301729 -0.06961579 -0.064086795 0.015148612
-0.064484105 0.2878859 0.16148986 0.114551894 0.25165245 -0.017998926 0.080379345 0.022403033
-0.067196205 0.24940631 0.15597643 0.015021148 0.24666932 -0.014143518 0.29209206 -0.073569365
0.33783808 0.2071317 0.01915602 0.0907068 0.06626231 0.14184465 -0.015762627 0.14291707
0.11908325 0.1868801 0.026759578 0.21885926 0.009082426 0.2305499 0.1990617 0.0852271
-0.019916745 0.09697613 -0.074323244 0.1229778 0.5101737 0.03893518 0.015208255 0.06246379
0.25063455 0.06568074 0.13905449 0.053612366 0.29947928 0.056688942 0.3837177 0.23517889
0.020111378 0.06528813 0.033280738 -0.081795484 0.22286053 0.105926774 0.04009493 0.39288563
0.068857215 -0.053617924 -0.012737789 -0.059867453 0.39424273 0.1916827 0.12583138 -0.07503755
-0.007694155 -0.022992054 0.040222365 0.31130964 0.093985915 -0.0021652975 0.23326197 0.3470695
0.2708071 0.09903894 0.05430165 -0.05051218 0.2521195 0.16150802 0.06101712 0.06251808
0.0071045137 -0.037545886 0.029031754 0.14470261 0.0050744307 -0.0020499195 0.20622139 0.17971544
0.05458061 0.1757321 0.393865 0.073457435 0.243169 0.12707885 0.0039588986 0.0130628515
-0.0155276125 0.12565719 0.10093663 -0.05789548 -0.014665053 0.13754238 0.049737453 0.12936121
0.21787997 -0.03206981 0.065831006 0.09511468 -0.015694343 0.032842733 0.06631082 0.16109866
0.2063336 0.058923338 -0.022600122 0.1097622 0.0363013 0.11712031 0.1595647 -0.007888984
-0.04222191 0.11437505 -0.0053570573 0.0073112003 0.11141852 0.0077638417 0.086517535 0.1960027
0.015472445 0.15273318 0.13988166 0.18217264 0.119656675 0.022752555 0.28917617 -0.008598739
-0.0014113493 0.23426367 0.54324377 0.03682579 0.35542956 -0.0016713227 0.15776932 -0.027611064
0.25188628 0.13062717 0.0012836944 0.13395888 0.010257574 0.07710299 -0.044067904 -0.010821093
0.42450055 0.09095847 -0.028643008 0.14849113 0.026214415 0.46818188 0.13690229 -0.15018697
-0.030967608 0.10486871 -0.01960978 0.17925769 -0.06288798 0.03895898 0.18125485 -0.03623248
0.202508 0.18833277 0.08979271 0.12019666 0.34085527 -0.017854216 0.19234975 0.2345821
-0.050065614 0.4068227 0.025466073 -0.08951967 0.4410841 0.46198943 -0.018036723 0.14557815
0.09298243 -0.030076886 0.017308138 -0.0009290033 0.36941218 0.07513006 0.17635433 -0.045796763
-0.05222891 -0.06679121 0.16465332 0.09881338 -0.05512193 0.025857039 0.36735982 0.36866474
0.044901714 -0.006399041 0.019052206 0.37554216 0.39138535 0.15254404 0.093089335 -0.059748795
-0.04181655 -0.0050314125 0.015055417 0.38393524 -0.009649033 -0.04143246 -0.023992036 0.27626672
0.20682144 0.11312627 0.10098202 0.00060740195 0.18875627 -0.019130949 -0.04476739 -0.05571373

fc3.bias f4 [6]
00000000: 8e03 c73e 868c 1e3f 9345 0a3f 7e1c f83e
00000010: 4afd b93d 6fb1 2cbc
0.388699 0.6193317 0.5401241 0.48459238 0.09081514 -0.01054035
