agent_code/small_DQN_agent/my-saved-model.pt (torch, 79127 bytes, 6 tensors)

fc1.weight f4 [128, 15]
00000000: 1d39 ffbe 1603 00bf 9b96 323e fd0e dd3b
00000010: e7e5 54be 5c19 4fbe 51d6 673d c84d 78bd
00000020: 0fbc 813c df24 153e 850e 2d3e 029b b3be
00000030: 9a0c 91be 1322 a6be 2d2a a8bc 2cb9 6bbf
00000040: ebff fabe 3713 253f a4d1 8e3f 43b4 2f3e
00000050: ae6c 5c3d 5c41 a53b 170e 3d3e ea03 29be
00000060: 5aa4 f9bd e9d9 8a3d 5d2e 41bd 6adc a0bb
00000070: 8db5 393d 44ef 823d 5895 5ebc 9c44 e7be
00000080: 4c32 403f d441 983f 8c75 52bd 4751 b23e
00000090: 704f 8bbd aa2d 05bd 64f0 863d 94b5 94bd
000000a0: c383 9abe 3a31 d23d 5fa8 133e 2255 57bd
000000b0: cbda 5b3e 5d06 a7bd 6f4c 51be 212a b7bd
000000c0: f555 ab3d 42b9 39bd 8e29 a2bd bd5d eabc
000000d0: eef2 25be 6e4f 613e 7abc f0bd 42a8 a43c
000000e0: 14c9 47be b8d4 a4bd 2e7d 11be ae53 08be
000000f0: ed8d 0f3d 4552 19be 2a4c 853e a056 b53e
00000100: 063f 57be 5e67 30bd 8899 75be 4118 8e3e
00000110: 8b8c 9fbd 557b 6e3d 9311 95be 7ce6 d0bc
00000120: 8c53 fdbd f07d fc3d 76f7 c1be c7ea 813d
00000130: 6f0b c63d 0afc e4bd 74d3 36bc ad62 45be
00000140: 1bc3 06be a70d 6ebe d276 963c 4252 27be
00000150: 74ab 2dbe a45b 0fbe 32bc adbd edfc 0fbe
00000160: 7f43 e1bd 7dc7 303d 34c8 4ebe b9ea 9b3e
00000170: de39 bb3e ff2e 4f3d a3ba de3d 6a23 783d
00000180: f230 4bbe 8b57 69be 8d9a 2e3d a5cd 243e
00000190: 2803 cc3d 16b2 5abe a35a d6bd 5633 58be
000001a0: d756 36be 1a73 3d3e 44a3 483e 459a f53d
000001b0: 14f6 85bb a4f6 8dbe 4aa6 49ba 6121 4ebe
000001c0: ed24 313d 74d5 1bbe 9519 6abe c6b8 46be
000001d0: 2c3b c3bd d4bc 4b3e c642 5dbe 31b0 a6bb
000001e0: be3b 7e3d 3fa9 f93d 43c2 5f3e 3653 74be
000001f0: eeeb 05be 40d5 523c 7be2 48be 1d3e c03d
00000200: b77d 3abe 860d 5f3d 129f 00bc e317 8bbd
00000210: befc 6ebb 2249 23be 81b1 52be 18d0 1cbf
00000220: e012 c93e e2c6 443e ed57 823f 67ab 3abe
00000230: 9d1a a63d 3535 a63e 548d 0bbe 57e0 99be
00000240: a80a 4abd f3c7 fdbd b940 0b3e 676f 02be
00000250: 5d27 28be 5d1d acbe 0f70 213e 2cbd 283f
00000260: 00d3 b2be 9db8 2dbe 54cc 603e 24d3 4a3e
00000270: 50fc e8bd b605 3dbc aef1 43be b5ff 7e3c
00000280: b3b8 e8bd 03cb 9cbe 316a babe 2956 b1bc
00000290: e8c9 f3bd 6c11 ab3d 76d9 b7bc d210 c93e
000002a0: 2d2e 343f 35cb 433d 4f1d 69be 2d7c 3d3e
000002b0: 3d39 a6bd 75d9 fb3d 51f4 d0bd a98e 32be
000002c0: a3e2 4c3e e58a 8dbe 61de adbe 8da5 77be
000002d0: 8aa0 673c eb5c f2bc 7b66 96bd 768d 55bd
000002e0: 5408 56be 08df 6ebe 22da 06be ed6e 78be
000002f0: dd06 67be cd18 533e 8aa9 07be ff20 663c
00000300: fc61 46be 9743 853d 775a 553c 4a91 d53e
00000310: 7b1c 033f cd6b 1a3e f5ec 143f fdfc 03be
00000320: 2cf6 9abe fb6a 403b 8308 483d bf20 dbbd
00000330: 533c f83d 2543 643e e187 763e 4709 d4bd
00000340: 3633 62be 2967 173d 901b 4a3d 33fe 5c3e
00000350: 1441 e13d 198b 903e 7240 443d 9e9b adbe
00000360: 23cd 46be e7f8 4abe 5cb5 6ebe e555 6c3e
00000370: 9066 4cbe 032e fb3c d9e8 dc3d 085e 74be
00000380: 72fa 423e 9b5c 27bf 57dd bfbe 6ada 223f
00000390: e29f 1c3f e2ab c7bd a475 42bd ac88 563e
000003a0: c2ac 2a3e 1124 44bb 2e4b 6cbe b6fe f53d
000003b0: d72a 2abe bab9 81be b063 53be 7008 b33d
000003c0: 2fba 033e 17f4 fb3e 7251 a53e f299 163f
000003d0: 79e8 e2bd 946a 7fbe 4984 403d fb97 f73c
000003e0: 7c08 4cbe 1896 a93d d20c 793d 741b ef3c
000003f0: a102 18bd 87f8 fc3d 7c21 e6bd 878e e13e
-0.4984826 -0.5000471 0.17440264 0.0067461715 -0.20790826 -0.20224518 0.056600872 -0.060621053
0.015836744 0.14564846 0.1690007 -0.350792 -0.28329927 -0.32447872 -0.020527923 -0.92079425
-0.49023375 0.64482445 1.1157727 0.17158608 0.053814583 0.005043192 0.18462406 -0.165054
-0.12189551 0.06779844 -0.047163356 -0.004909088 0.045339156 0.063932925 -0.013585411 -0.45169532
0.75076747 1.1895089 -0.051381633 0.34827635 -0.06802261 -0.03251425 0.065888196 -0.07261196
-0.3017865 0.102632955 0.14419697 -0.052571423 0.21470182 -0.081555106 -0.20439313 -0.08943582
0.083660044 -0.04534269 -0.07918082 -0.028609151 -0.16205952 0.22002956 -0.11754699 0.020099763
-0.19510299 -0.080483854 -0.14207909 -0.13313171 0.03504746 -0.1497279 0.2603467 0.35417652
-0.21020135 -0.04306733 -0.23984349 0.2775288 -0.07790478 0.058223087 -0.2911497 -0.025500529
-0.12369451 0.12328708 -0.3788411 0.06343608 0.096701495 -0.11180885 -0.011158813 -0.19275923
-0.13160364 -0.23247395 0.018367205 -0.16339973 -0.16959935 -0.13999802 -0.08483161 -0.14061327
-0.10999202 0.043158997 -0.20193559 0.30452517 0.36567587 0.05058193 0.10875442 0.06058065
-0.1984289 -0.22787301 0.04262786 0.16094072 0.099615395 -0.21356997 -0.10466506 -0.21113333
-0.17806564 0.18500939 0.19593531 0.11992315 -0.0040881727 -0.27727234 -0.00076923205 -0.2012992
0.043248106 -0.15218145 -0.22861321 -0.19406423 -0.095327705 0.19896251 -0.21607503 -0.0050869216
0.062068693 0.12190484 0.21851449 -0.23859867 -0.13078281 0.012868226 -0.19617645 0.09386847
-0.18212019 0.054456256 -0.007850425 -0.067916654 -0.0036466564 -0.15945867 -0.20575525 -0.61255026
0.39272213 0.19216493 1.0183083 -0.18229447 0.08110545 0.3246247 -0.13628131 -0.3005397
-0.04932657 -0.12391653 0.13598908 -0.12737809 -0.16421266 -0.33616152 0.15765403 0.65913653
-0.34926605 -0.16964956 0.21952945 0.19807106 -0.1137625 -0.011537006 -0.19135162 0.015563895
-0.113633536 -0.30623636 -0.36409143 -0.02164753 -0.11903745 0.08352932 -0.02244256 0.39270645
0.7038296 0.047801215 -0.22765087 0.185044 -0.08116386 0.12297336 -0.1020285 -0.17437233
0.2000833 -0.2764503 -0.33958724 -0.24184246 0.014137397 -0.029585322 -0.07343765 -0.05213686
-0.20901614 -0.23327267 -0.13169149 -0.24261065 -0.22561212 0.2061493 -0.13248268 0.014045953
-0.19373316 0.06507032 0.013022057 0.4171241 0.5121533 0.15080185 0.5817407 -0.12889476
-0.3026594 0.002936064 0.048836242 -0.10699605 0.12120881 0.22291239 0.24075271 -0.10353332
-0.22089848 0.036963616 0.049342692 0.21581344 0.10998741 0.28231123 0.047913022 -0.3390779
-0.19414191 -0.19821511 -0.2331137 0.23079641 -0.19961 0.030661589 0.107866 -0.23863995
0.1904085 -0.6537568 -0.37473556 0.63614523 0.6118146 -0.09749581 -0.047475472 0.20950574
0.16667464 -0.0029928724 -0.23075554 0.12011473 -0.16617905 -0.2533701 -0.20643497 0.08741844
0.12863992 0.49209663 0.322887 0.5882865 -0.11079497 -0.24943 0.047001157 0.030223837
-0.19925112 0.08280581 0.060803242 0.029187895 -0.037111882 0.1235209 -0.112368554 0.44054052

fc1.bias f4 [128]
00000000: 3612 88be e282 b53e 47f8 0c3e 73a7 cabc
00000010: 10cc 693e 0cfd 5a3e ed24 ba3e 3cad 61be
00000020: b2e2 77be 872b 743e 60ad a9bd 88cb 0a3f
00000030: cc70 963d 3bf6 223f 4bc9 12be d1b4 c1bd
00000040: 34c4 0c3f bf9a 403e 4053 f83e 9000 8d3e
00000050: 0ae9 573e 073e 0a3f 9f8a ef3c 60c4 82bd
00000060: d892 0f3e bd35 5a3e 0e9d 69be eadc ba3e
00000070: 560e 6e3e d09b 473e 9993 2d3e 765b c83e
00000080: 978c e53d 7b21 2ebe 956d 173e 6e99 143f
00000090: 78f1 963e e76d 1e3f a1fe 6fbe eded e23d
000000a0: 1fe3 82be 4e28 1cbe 10cd 0b3f e3ab 273f
000000b0: 6e80 34be a0a3 cc3d 3ade 193f 20c0 33bd
000000c0: d3c6 8c3e 5fe1 dc3d c0eb cc3e 05c0 623e
000000d0: e90e bfbd 1ee0 5dbe 4d1b 063e d10e 783d
000000e0: 56e3 d63d 9c9d 873e 98d5 bf3d c15a b53e
000000f0: dd76 dd3d 5988 c4bd a458 193f 7856 7bbe
00000100: f8e2 c23e 31ac c23e 799a 0e3e 1337 96bd
00000110: 3bb8 77bc 29c1 de3c 1f6b 3cbe ff19 db3e
00000120: 09a2 053f 422e c43e 4d57 a93e 8e30 053f
00000130: aeb5 b13e a095 6cbe 5432 d83e fd3d 513d
00000140: 8d31 a63d 287d 80be 94c1 be3e a8d2 c43c
00000150: b728 99bd 974f b93c d051 db3c e40f 003f
00000160: 7afb f93e bec3 353e 1c32 4e3e ad0b d63e
00000170: af3d d23e 5a54 d83e d894 403f 2b06 c43e
00000180: da65 143f 3abb 103f f9a8 3d3e ac33 353d
00000190: b130 5abe c6a6 c33d 0804 e13e e763 353f
000001a0: d083 f8bd 56c3 d4bd a191 653d 12f7 863e
000001b0: 8af0 573e da1f 373f 0865 113f ae26 2f3e
000001c0: f293 463f 6215 2a3f 2c85 be3e 89aa cc3e
000001d0: 8b6e a3bd 89da f63e a745 813e b4b4 c43e
000001e0: a7e4 183e 5772 9d39 ea01 6f3e 2bc3 de3e
000001f0: ca06 da3e 0173 d4bd 5eed ca3d 4f99 153f
-0.26576394 0.35451418 0.13766585 -0.02473805 0.2283175 0.21385592 0.36356297 -0.2203874
-0.24207571 0.2384473 -0.08285022 0.54216814 0.07345733 0.6365697 -0.143346 -0.09458316
0.5498688 0.18809031 0.48501015 0.27539492 0.21084991 0.54000896 0.029240904 -0.06385112
0.1402086 0.21309562 -0.22813818 0.3649667 0.23247656 0.19493032 0.16950835 0.3913228
0.11208456 -0.1700496 0.14787896 0.58046615 0.294811 0.6188645 -0.23436977 0.11080537
-0.25563905 -0.1524975 0.54609776 0.65496653 -0.17627117 0.099921465 0.60104716 -0.043884397
0.2749544 0.107851736 0.40023613 0.22143562 -0.09329016 -0.21667525 0.13096352 0.060561005
0.1049258 0.26487434 0.09366912 0.35420802 0.10813687 -0.09596319 0.5990088 -0.24544704
0.38063788 0.38021997 0.13926114 -0.07334723 -0.015119608 0.027191715 -0.18400238 0.4279327
0.5220037 0.38316542 0.33074418 0.52027214 0.34708923 -0.23103952 0.42225897 0.051084507
0.0811492 -0.25095487 0.37257063 0.02402623 -0.07478469 0.02262096 0.02677241 0.5002425
0.48824674 0.17750451 0.20136303 0.41805783 0.41062686 0.42251855 0.7522712 0.38285956
0.57967913 0.56535685 0.18521489 0.04423873 -0.21307637 0.09553294 0.43948388 0.70855564
-0.12134516 -0.1038882 0.056047086 0.26360375 0.21087852 0.71532977 0.56794786 0.17104599
0.77569497 0.6643888 0.37210977 0.39973858 -0.07980069 0.48213604 0.25248453 0.38419116
0.14930974 0.00030030563 0.23340574 0.43508276 0.42583305 -0.10373498 0.099085554 0.58437055

fc2.weight f4 [128, 128]
00000000: 8a2d cbbc 1dca 043a 55c8 f03c 9d3e b73c
00000010: 98a2 87bd 4dc4 91bd 5a71 8c3c 1a02 a53d
00000020: c397 6cbc e39e 18bd 31c8 66bd c0d8 a93c
00000030: 5a6f 91bd 4382 84bd 2458 6d3d 95ea 00bc
00000040: 6807 22bc dae2 853d 6670 a2bd 4e75 71bd
00000050: a45d eabd 350d acbd 1f8f 86bd f424 823d
00000060: 5c75 c4bd 4c83 83bd 5c88 a23d c9ef c13b
00000070: aabe e5bc 2a76 cd3b c7ae 65bd 7d1d 0cba
00000080: 5578 763d a078 94bd e463 1d3d 7c75 173d
00000090: 81fb 07bd ab17 91bd 84e0 373d 82c6 a2ba
000000a0: 78fc 8bbd 636f a5bc 2d71 e4bb 9c35 933d
000000b0: e6fd 30bd ea00 033c 8a16 6b3d 5f62 9abd
000000c0: 1966 2f3d ecba 2a3d bd1f 2e3d 7c48 50bd
000000d0: 2700 1c3c f5d2 e03c d882 213d dc15 863d
000000e0: f0f5 83bd 0595 b2bd be7a cfbd aa29 703b
000000f0: aa3b edbc 9942 503c c6bd 0c3d 6f4b a23d
00000100: 4f59 b9bc 0581 c9bc 445d 703d 9275 69bd
00000110: 6389 823d 6624 1f3d 4446 33bd 75dd 1cbd
00000120: 59ea b8bd 6823 ee3c 298e 9dbc 0cca 3cbd
00000130: 239f 1cbd 143b f13c 83c3 713d ec07 7d3b
00000140: 2bd7 a23a 371d 94bd 25fd c33c f10e 0c3d
00000150: 7264 7fbc d141 2abd fad6 b23d 42f9 833d
00000160: 7815 3b3c ece9 563c 2a50 a0bd 10d7 cb3b
00000170: 527a 93bd f33e a5bd ba37 bcbd 10f4 8dbd
00000180: 2241 99bb 5bb2 933d 5bb1 20bd fea9 efbd
00000190: be5b 99bd 30ac d4bd 3e8f 483c 942a 87bd
000001a0: b39d b5bd 5c31 233d 8033 8dbb 1e98 f03c
000001b0: 030d eb3c 49d3 6e3b 5767 46bd 907d a63b
000001c0: 1c76 a8bd 7b33 aebc 398f aabd 3438 2c3c
000001d0: 174b ebbc 988e be3c aab6 88bd d1e1 91bd
000001e0: a24f 903d 1614 f8ba c288 89bd cb84 863d
000001f0: 96ca 123c 823e 88bd 5ca3 a0bd 83cc 423d
00000200: 7932 b5bd ba4a e5ba 7586 103e 1a0b 9e3d
00000210: d02e 15bd 8100 e83c 819d 7a3e e19d 04be
00000220: 0536 213d c59f 933e ef9d 88be 6312 563e
00000230: d1bc c4bb 982d c0bd 7ef2 853d 2113 853d
00000240: 3d80 b13b 66bf 263d 8160 1d3d 6e36 93bd
00000250: 3cee aabd 2dc2 213f 5755 693d 80a0 ab3d
00000260: 5ce1 77be bee4 693d 9cce f4bc 063f 833d
00000270: 1c34 473d e30b fa3e 901a 59bd b97c 3c3d
00000280: a181 173d 5e7d a23d 7f5c 07bd 6d27 febd
00000290: eaed 0d3e bba2 0f3e bb9a 27bb 83c2 88bd
000002a0: 1b90 7fbc 2702 f2bc 32a6 963e 144b 983e
000002b0: 5db6 b8bd c93c 32be 5e55 9ebd cd2a 583c
000002c0: e4c9 0cbe 3b7c 813e 3d06 38bd 851f 223e
000002d0: 5a72 bcbd 55ed b13c 5f7e 373e 8192 473d
000002e0: f3e9 543d 1997 d13e 5f7f cd3c d258 98bb
000002f0: 4ed8 56bc 0268 6f3d 3db0 123e 0b7b a1bd
00000300: 59f4 723e f54e 02be aae3 203c f68b 14be
00000310: 9f81 9bbb 8c34 133b 5672 e5bd f18f 933c
00000320: d52a b23b eb71 5cbd 26ea 823d d77c 1ebe
00000330: b4dc 51be 3672 603d d1fa 75bd c0ec 9bbe
00000340: 7e9e 2cbd 0b4c 773d dfad 143d aacb 71bc
00000350: e1bc 13be 0b38 383c ed3c 14be b842 413e
00000360: 1802 3fbd 8392 8d3c 98da 173e 1a89 68bd
00000370: bf73 76bb ea93 5b3e 788b 9fbe 4dcc 103e
00000380: 7358 adbc f741 723e 8c81 b1bd 69b9 cabd
00000390: c261 c9bd 14e5 263e 4d96 aabd 2905 5ebe
000003a0: 5d8f 2ebe cb14 74be 3633 48be b426 f2bd
000003b0: 0ec8 053e 28ce 593d 8fa1 18be afe4 d5bd
000003c0: 0846 afbd a944 313c 6c56 c2bd 4266 5dbe
000003d0: 991b 51be ada3 a23e 1a64 efbd 7760 8e3d
000003e0: cd7f b23e fc41 bfbd 67ef aa3d 36ec 61be
000003f0: aa8c 3bbe dc46 41be 2cdd 65be 0300 d93e
-0.024801988 0.00050655176 0.0293924 0.022368724 -0.06622809 -0.071175195 0.017143894 0.080570415
-0.01444048 -0.0372609 -0.05634326 0.020733237 -0.07101317 -0.06470158 0.057945386 -0.007868429
-0.009889461 0.06537409 -0.079315946 -0.05894976 -0.11443642 -0.084009565 -0.06570267 0.063547045
-0.09592697 -0.06421527 0.07936165 0.005918477 -0.028045017 0.00627019 -0.056074884 -0.000534497
0.06017335 -0.0724957 0.03842534 0.036977276 -0.033198837 -0.070845924 0.04489185 -0.0012418779
-0.06835264 -0.020194715 -0.0069714994 0.071879596 -0.043210886 0.007995823 0.05739454 -0.07538294
0.042821977 0.04168217 0.042510737 -0.050850376 0.009521521 0.027444342 0.039431423 0.06547138
-0.06443393 -0.087198295 -0.10130833 0.0036645927 -0.028959114 0.012711191 0.03436067 0.07924544
-0.022625593 -0.024597654 0.058682695 -0.05699689 0.06373861 0.03885307 -0.043768182 -0.038297135
-0.09029073 0.029069617 -0.019232826 -0.046091124 -0.038237702 0.029447116 0.059024345 0.0038609458
0.0012423744 -0.07232135 0.02392442 0.034193937 -0.015587913 -0.041566674 0.0873241 0.064440265
0.011418693 0.013117295 -0.0782779 0.006220706 -0.07201065 -0.08068647 -0.091903165 -0.06931317
-0.004676954 0.07211753 -0.03923164 -0.11702345 -0.074882016 -0.10384405 0.012241183 -0.06599918
-0.08867969 0.039841995 -0.004309118 0.02936941 0.028692728 0.0036441854 -0.048438396 0.005080886
-0.082256526 -0.021264782 -0.08328099 0.010511447 -0.028722329 0.023261353 -0.066754654 -0.07123149
0.07046439 -0.0018926885 -0.067155376 0.06568297 0.008959433 -0.066525474 -0.07843658 0.04755832
-0.088475175 -0.0017493584 0.14113791 0.07716961 -0.036421597 0.028320553 0.24474145 -0.12950851
0.039358158 0.28832832 -0.26682994 0.20905451 -0.006003954 -0.09383696 0.06540392 0.06497789
0.0054168985 0.040709876 0.03842211 -0.07188116 -0.08346221 0.63186914 0.056966152 0.08380222
-0.24207062 0.05710291 -0.029883675 0.06408505 0.04863368 0.48837194 -0.053003848 0.046017382
0.036988858 0.07934068 -0.033047196 -0.124098636 0.13860288 0.1402692 -0.0025574404 -0.06677725
-0.015598322 -0.029542042 0.29423672 0.2974478 -0.09019158 -0.17406 -0.07731126 0.013193798
-0.1374889 0.25290093 -0.044927824 0.15832336 -0.09201498 0.021719614 0.179193 0.0487237
0.051980924 0.4093559 0.02508515 -0.00464926 -0.0131130945 0.0584488 0.14325042 -0.07884797
0.23726024 -0.12725432 0.009819904 -0.14506516 -0.0047456766 0.002246174 -0.112034485 0.018012973
0.005437235 -0.05381958 0.063923165 -0.1547731 -0.20494348 0.05479642 -0.06005365 -0.30454063
-0.042143337 0.060375255 0.03629863 -0.01475803 -0.1442752 0.01124383 -0.14476366 0.18873107
-0.046632856 0.017281776 0.1482948 -0.056771375 -0.003760561 0.21443143 -0.31161094 0.14140435
-0.02116034 0.23657976 -0.08667287 -0.098986454 -0.09833099 0.16298324 -0.08329449 -0.21681656
-0.17046876 -0.23836057 -0.19550785 -0.11823788 0.13064596 0.05317512 -0.1490538 -0.104440086
-0.08558279 0.0108195925 -0.0948914 -0.2162104 -0.20420684 0.317655 -0.11689015 0.06951993
0.3486313 -0.093387574 0.083464436 -0.22062764 -0.18315378 -0.18874687 -0.22447652 0.4238282

fc2.bias f4 [128]
00000000: 4b10 f9bc edb5 163e 2ee1 cabd a100 e73c
00000010: 12ae 863b dcff 193d e7a1 41bd e307 093f
00000020: 3fc7 703d 691c 0f3c 16a1 aabd eac0 d43e
00000030: 405b b9bd 97d6 f0bc 7e1e 623c d9d6 2abc
00000040: 8b0e cc3c 88c8 233d 404f 47bc 6c33 8b3e
00000050: f34e 023e 5f1c f8bc 26c1 96bd 7cbb 053d
00000060: 4cc3 323f bd1a a73e b88a fb3c 7b97 92bd
00000070: bab1 dd3e ed0e d43e 9b83 8c3e f054 02be
00000080: 975e 85bd 519a 0d3d 8f40 1e3f 99bb c43e
00000090: b05f 2a3f 25b4 93bd 46bc 32bd 0cdc 4abd
000000a0: b312 093d cd24 bd3e b99c 0fbc 7f16 e6bc
000000b0: 0bcf 30bc 3f61 dd3e d6a6 06be 1e55 0c3c
000000c0: 81cf 043f 6809 fabd 6210 8dbd a610 f53e
000000d0: 2bbf 3bbd 45fa be3c a82a 2bbd a006 903e
000000e0: 65a9 413f c452 80bd 5ee8 8bbd c32d e73e
000000f0: b3a5 2e3f 3fc5 b9bd b8e5 093e 31af 96bb
00000100: 1430 f23e 8d8c 6fbd 90c8 a9bd f5f0 3d3f
00000110: fda5 7fbd 57c1 b93e 337d 1a3d 695d 023d
00000120: 32de 0cbd 7aae c23e 2fcf 433f 32a2 563c
00000130: 0fae 393f b813 f9bd 53ea cc3e a66c 503f
00000140: 17a6 00be 4ae8 f13e 9959 453f d266 0ebe
00000150: a21d 363f c2f6 a53e 74cc 973e a6ec bfbd
00000160: 2a26 f9bd 675c 2cbd 2672 27bc 2ba7 2a3f
00000170: 4927 f4bb daf0 293d 79c0 303f 3e48 823e
00000180: 074b 043f 936a 71bd 57e0 b6bd 1f26 0f3f
00000190: 184a d1b9 67ce fd3c afed 293b 53bf ba3c
000001a0: d1ce 87bd 0274 603e 46e4 9abd 1ce5 193f
000001b0: 28ec dfbd 1cbe 05be 8841 593e 1599 003f
000001c0: be53 90bd f441 d63e ca31 d2bd 5623 4d3f
000001d0: 262d 263e aed9 8d3e 8070 f63c e8a1 30bc
000001e0: 15e9 73bc a550 c63e 8278 d7bd 4a0e ff3e
000001f0: c5d3 033f d91c 89bd cc5c 413e f73d 92bd
-0.030403277 0.14717837 -0.09906231 0.028198542 0.0041101063 0.037597522 -0.047273543 0.5352766
0.058783766 0.008734801 -0.08331506 0.41553432 -0.09050608 -0.0293992 0.013801215 -0.0104272
0.024909278 0.039986163 -0.012164891 0.2718767 0.12725429 -0.030286966 -0.07361059 0.032649502
0.6982925 0.32637587 0.030705795 -0.07157799 0.43299657 0.41417637 0.27444157 -0.12727714
-0.06512182 0.034570996 0.6181726 0.38424376 0.6655226 -0.07212094 -0.043636583 -0.04952626
0.0334651 0.3694214 -0.008765393 -0.028086899 -0.01079155 0.43238255 -0.1314958 0.008565215
0.51879126 -0.12208825 -0.068878904 0.47864264 -0.04583661 0.023312697 -0.041788727 0.28130054
0.756491 -0.06265786 -0.0683143 0.451521 0.68221587 -0.09070825 0.13466537 -0.004598521
0.47302306 -0.05848365 -0.082902074 0.74195796 -0.062414158 0.3628032 0.037717056 0.031827364
-0.03439159 0.3802374 0.7648801 0.013100194 0.7253122 -0.12161964 0.40022525 0.81415784
-0.12563358 0.47247535 0.7708984 -0.1390641 0.71138966 0.32414824 0.29648173 -0.09371309
-0.12165482 -0.04208031 -0.010220086 0.6666133 -0.007450972 0.04148946 0.6904369 0.2544574
0.5167698 -0.058939528 -0.08929508 0.55917543 -0.0003991879 0.03098221 0.0025929024 0.022796309
-0.06631244 0.21919253 -0.07563071 0.6011522 -0.10933715 -0.13060802 0.21216404 0.50233585
-0.070472226 0.41847193 -0.10263403 0.80132043 0.1622816 0.2770514 0.030082941 -0.010780789
-0.014887114 0.38733402 -0.10521032 0.4981559 0.5149501 -0.066949554 0.18883055 -0.07140725

fc3.weight f4 [6, 128]
00000000: 7864 d23c daec 2a3e cb68 3c3d 978e d3bc
00000010: 78cb 78bd a455 813d a96e a0bc f84b 033e
00000020: 2e97 a7bd 48f0 8d3d acce 523d 2957 f63d
00000030: 7dde 2e3d 129a 8b3d cb09 87bc e3b2 90bc
00000040: 3ca0 5fbd 7e22 e8bc c447 3fbc 45f9 273d
00000050: 3a1b 1b3d 0340 20bd c305 913d 77d7 753d
00000060: 83ff 3b3e a12c 973d bfed b9bd ae20 013e
00000070: 1ccf c43e de13 ab3e 92f2 acbc e117 5b3d
00000080: ff98 443d 20d5 1e3d cd7c 303e 837e eb3c
00000090: b2fa 0d3e b53a 93bd 7dc9 8d3c 9954 a5bc
000000a0: 9c58 88bd 3e27 1f3e 7bdf 413d 1d54 5d3c
000000b0: 106f 043d 338e a53e 159c 183d f1c7 6bbc
000000c0: baf2 bb3e e3f8 813c c9d6 f03c bfcb 933d
000000d0: 08e1 9d3c ce3a 2dbc cfcb 4abd f183 2b3e
000000e0: 948d b33d e070 15bd 9558 b4bc a1f3 1a3e
000000f0: 3f79 0e3d beaa b0bd 993b 333c 959a e8bd
00000100: d156 0b3e c833 2f3d fdce a2bd 4b3c 223e
00000110: 0841 2cbd 45e7 5b3b 27f1 933d 4cf0 0bbb
00000120: 852c cf3c 4b1d 813e 15b4 353d 2849 78bd
00000130: 2073 9d3d 22f7 6dbd 9718 943e a846 833e
00000140: f179 99bc 33e1 3f3c 929b 663e cef1 593d
00000150: c955 193e 5c98 7bba 102e 293e 0614 76bd
00000160: 0b69 7e3d 59e9 abbc f100 263c c4d7 1e3e
00000170: 1f00 86bb 6d11 503d 1fd1 4c3e 8389 2f3e
00000180: f40b 88bd 901a 5dba 00c6 4fbd d67f 363e
00000190: 5c55 46bd 786f 47bd 0ad3 653c 5583 c5bd
000001a0: 3c83 f0bb f68a 3e3c f9b5 bf3d 9a46 fb3c
000001b0: 8c5c 3fbb d7fa 1f3c aba6 a83d 57bf 46bc
000001c0: c0c2 e4bd 5fb6 483e 5a25 813c 4fa6 be3d
000001d0: 99d1 dfbc c863 123e ee0a 3b3c a51c 263d
000001e0: 9c9e 3a3e 1619 833e ce74 cb3c a42a 3d3d
000001f0: 107a 043f 4623 0bbd b262 263e c637 833c
00000200: 0c83 92bd 29a7 db3c 827f c0bc 0473 9a3d
00000210: 80af 93bb a9e7 30bd 6d3a 37bd 1489 023d
00000220: a981 0c3d bdb5 d83b 663a adbc b86a 2c3e
00000230: 6d55 c63b 1fc6 08bd 7cb8 933c 65ff 58bd
00000240: f12f 9cbd a3cc 98bc 54f4 ab3c 9e76 c83d
00000250: 3e7c d93d 1e29 3dbd 062c 013c 034c 0f3e
00000260: bd5a e83d 13d2 ddbd cd4c efbb 234f 403e
00000270: 8d39 c73e 35d8 453e 652b 8a3e c5d9 40bc
00000280: 7106 933d 5826 8f3c eecb 023e 0e17 653e
00000290: 75e6 763e 67de d3bc 0f5a 233d 0d48 243d
000002a0: 96d3 093b 7707 823e 781f 12bd a0b5 6ebc
000002b0: c795 633c 3aaf eebd d1c8 4b3c e172 e43d
000002c0: 8000 42bb 0377 503c a87b 113d 0bd8 703d
000002d0: 150b da3c 104f 78bd 6065 c43c 0278 e83e
000002e0: 6935 223e c846 083d 1a1e 2ebc c90c 443e
000002f0: a297 2c3e 7b38 8fbd c0a9 3e3b 026a 66bd
00000300: 4615 1c3e 6a1c 79bc ee28 993d 8fe9 aa3d
00000310: bb19 213d 0b70 dd3c 26cf 8d3c 81e0 14bd
00000320: 244a 323c 60f4 6d3e 09b1 043e cd70 45bd
00000330: 98fb 3c3e 175d eb3c 85dd de3d d98a 1d3e
00000340: 6e8c a3bd 3ff9 e23c 4175 6f3d 33b3 cbbc
00000350: d0a3 4d3e c5d3 913e 07e5 5b3e 8bc3 923d
00000360: d989 4d3c 21a3 d4bd 9dba 82bd c301 0c3e
00000370: 4d12 233e 009a 5cbd b425 123e c0d1 193e
00000380: 7cbb 1f3e 0d20 93bd 3a30 6e3d 4ccb a83e
00000390: 042c b13c 5b6e bd3b f3ca a03d 2179 aabd
000003a0: c489 a2bc 9cb4 ad3d 7f03 9c3d 63fb 183d
000003b0: af9a 8ebd 3374 f23c effc 5c3e 4e57 ac3d
000003c0: cfed ca3c c6ce dc3d 462f 9cbd ce32 333e
000003d0: 35da 053e 6ada 9d3e d6c6 5c3d e062 3fbd
000003e0: 1134 883d d586 c73e 9654 1e3c cf29 c93d
000003f0: c23c 6c3e fac8 aebd b935 4f3e 672e 0e3d
0.025682673 0.16691914 0.045998376 -0.025824828 -0.060740918 0.06315163 -0.019584017 0.12821949
-0.08183132 0.06930596 0.05146663 0.12028343 0.04269265 0.06816496 -0.016484162 -0.017663425
-0.05459617 -0.02833676 -0.011674825 0.041009206 0.037867762 -0.039123546 0.07081177 0.060019936
0.18359189 0.07381559 -0.090785496 0.12610123 0.38439262 0.33413595 -0.02111176 0.05348957
0.04799747 0.03877747 0.17235108 0.028746849 0.13865164 -0.07188932 0.017307991 -0.02018194
-0.06657526 0.15542313 0.04733227 0.013508824 0.03233248 0.32335052 0.037258226 -0.014390931
0.36708623 0.015865749 0.029399293 0.07216596 0.019272342 -0.010573102 -0.049510773 0.1674955
0.08767238 -0.0364846 -0.022014895 0.15132 0.034783598 -0.086263165 0.010939502 -0.11357609
0.13607337 0.04277399 -0.07949636 0.15843312 -0.042054206 0.0033554595 0.072237305 -0.0021352945
0.025289783 0.2521766 0.044361193 -0.060616642 0.07687974 -0.058097012 0.2892501 0.25639844
-0.018734904 0.0117114065 0.22520283 0.05320912 0.1497413 -0.00095975935 0.16521478 -0.06007769
0.062111896 -0.020985292 0.01013206 0.15511996 -0.00408937 0.05079787 0.20001648 0.171423
-0.06642905 -0.0008434439 -0.050725937 0.17822203 -0.04842125 -0.04869029 0.014027366 -0.0964419
-0.007339863 0.011629811 0.093608804 0.030673314 -0.002919945 0.009764395 0.082349144 -0.01213058
-0.11169958 0.19600819 0.01576488 0.093090646 -0.027321624 0.14295876 0.01141618 0.04055466
0.18224567 0.25605077 0.02483597 0.046183243 0.5174875 -0.033969186 0.16248587 0.016017806
-0.071539015 0.026813107 -0.0234983 0.07541469 -0.004507005 -0.04318968 -0.044733454 0.03186901
0.03430334 0.0066134618 -0.02114601 0.16837585 0.006052664 -0.033392068 0.018032305 -0.05297794
-0.076263316 -0.018652266 0.020990528 0.097882494 0.106194004 -0.04618179 0.007884031 0.1399384
0.11345432 -0.10831084 -0.0073028565 0.18780188 0.38911095 0.19320758 0.26986232 -0.01177067
0.07178963 0.017474338 0.12773106 0.22372076 0.2411135 -0.025862886 0.03988081 0.040107775
0.0021030656 0.2539632 -0.035674542 -0.01456967 0.01389069 -0.116545156 0.012438015 0.11154724
-0.0029602349 0.012723687 0.03551832 0.058799785 0.026616612 -0.060622275 0.02397412 0.4540406
0.15840687 0.033270627 -0.010627294 0.19145502 0.16854718 -0.06993195 0.0029092878 -0.05625344
0.1524249 -0.015204528 0.0747851 0.08345329 0.03933118 0.027030965 0.01731069 -0.036346916
0.010881934 0.23237753 0.12958159 -0.04820328 0.1845535 0.028730912 0.10882095 0.15384997
-0.07985769 0.02770674 0.05846143 -0.024865722 0.20082021 0.2848188 0.21474086 0.07166203
0.0125450725 -0.10382677 -0.0638325 0.13672547 0.1592495 -0.053857803 0.14272195 0.1502142
0.15598863 -0.071838476 0.05815146 0.32967603 0.021627434 0.0057809777 0.078512095 -0.08323885
-0.019841082 0.08481714 0.07617854 0.037349116 -0.06963097 0.029596424 0.21580862 0.084150895
0.0247716 0.107816264 -0.07626204 0.17499849 0.1307152 0.308307 0.053900562 -0.046725154
0.06650556 0.38970056 0.009663722 0.098224275 0.23070052 -0.08534427 0.20235337 0.03471222

fc3.bias f4 [6]
00000000: 1618 b03e d4c0 073f ff0b 083f 8d87 a53e
00000010: 07a0 303e da61 4abf
0.34393376 0.5302861 0.53143305 0.3232998 0.17248546 -0.7905556
