agent_code/small_DQN_agent/my-saved-model.pt (torch, 77591 bytes, 6 tensors)

fc1.weight f4 [128, 12]
00000000: 661e d53e 14f3 413e a1bc 1e3f 11c4 eb3d
00000010: 8558 9c3c cfb8 09be a6cf 6dbf a5ac a1be
00000020: aa2e f33d 2591 19bf 0e7a 0ebf fb62 0fbe
00000030: a7ef 3f3e 3026 2bbe 9d45 29bd 8a9d 75bd
00000040: 99fa 593e 3565 47bf 3b4c 59bf 8c8e c63d
00000050: 8620 653f cc0c eabc 71ea 0cbe 1cb2 c93e
00000060: 54a2 cfbe fcf2 08bf df9c e1be 2c4b b5bd
00000070: ef52 e73c a897 9b3e f634 f3bf 8e04 47bf
00000080: def9 5c3d d5dd 05bf 84f9 1a3f 5cba 8cbe
00000090: d9f6 85be d92c ebbd 756b cbbe a7e0 9a3e
000000a0: 60d6 a7bd 41fc 03be 6bb0 d4be 8584 3fbf
000000b0: 07c5 cebe 3588 543e 65ed cebe 297c 9cbc
000000c0: 1ecc 2b3e f838 1b3f 1ef5 e5be cc8c 2dbf
000000d0: 7d32 ce3e a2de a83c 47f3 733e b21a 06bf
000000e0: f9d4 9e3e 7c7c 8ebd cff8 0cbe 63c5 8c3d
000000f0: 0f29 ca3d 4dc5 713e 4ee9 42bd f17a abbe
00000100: 7788 3d3e d3fd 233f e180 7dbe 41ef f2be
00000110: 329b 3c3f 0f3d c9be 8352 30be f3c2 a4be
00000120: 6fbb 3d3e 4142 b13c 4c66 e13d 9a07 bfbd
00000130: 5ff6 9dbe e36a c83d 2abb 14bf 8533 503f
00000140: 19ec 04bf 0ead 76be 028c 32bf 65df 67be
00000150: b7db 57be 6569 63be 52c4 f1bd 4ab2 773e
00000160: dd07 8fbe 652b 6b3f 1f9c cdbf 6093 debe
00000170: 1350 1cbf 011e 223f 2a4b 1cbf 7e9a 253d
00000180: 94d7 e8be 3290 adbd fe8f 1c3e 42e5 753d
00000190: f975 b13d 540e a039 30ce 01be 0973 bd3e
000001a0: e54d 983d 901a 0a3e 9f7d 273d 3999 3abe
000001b0: ba13 39be 0808 be3e 86a9 8fbe bc6f 903d
000001c0: a2f5 8bbd 71a2 9ebe c531 e8be 74f3 f1be
000001d0: ceb9 903d 9e3b 63be 5da5 0d3c ee56 61bd
000001e0: b6a2 6a3e 2e6e d6bd 3166 2e3f 1bdb 25bf
000001f0: 9665 91be b661 7e3f 6e53 cf3f a07c bfbd
00000200: 672f 07be 7093 9ebe 9950 14bf 9676 efbd
00000210: 5020 913e 9e6c 473e d082 b23e 852c 363d
00000220: 3e30 43bf a966 eebc 61d7 73bf 258d 783e
00000230: 4525 35be 6e77 cd3e f328 d1be 409f 52be
00000240: b814 3ebe 7daf 983e d8f5 06bf 2c98 933e
00000250: 7566 ed3e 2d0e 1dbf 6198 99bf e3b2 73bf
00000260: bf4c 84bf fa40 fdbd daf3 fa3e 1b33 50be
00000270: cce8 2bbc 9970 a8bd 7668 58bf 3a7d 20bf
00000280: 36c9 38bf 5850 263f 1e0e 23bf 9c54 a4bc
00000290: f0a1 c63e e7f1 a5be db02 5bbe 215f 57be
000002a0: 874b 47bd ad10 bcbe 3b8e 553e 5224 22be
000002b0: 3d43 ccbe 3d94 8abe a23f d3bf 73af ffbb
000002c0: 7ba3 153f 0e8a 703e 201b b83e fca2 4bbe
000002d0: 4f92 c8be 9ed9 df3e d39c 663f f2f2 a03e
000002e0: b668 07bf 218e 96be 6230 54bf 4d01 1ebf
000002f0: 06f8 38bf dd6a 4b3d b763 bbbd 6cb3 72be
00000300: 8b50 993e 1354 9ebe 12e3 2ebf 8405 ec3e
00000310: bab8 e1bd bb27 d6be c745 4fbf ca22 3d3e
00000320: 700e 143f b8f0 10bf e8df 9abe 4797 22be
00000330: 038b ee3e 12fc fe3c aca4 853e b342 a63e
00000340: 8896 1bbe 3db7 693e 273e 40bf c6fe ff3e
00000350: 8182 183e b911 b1be c858 de3c 3f8b 77bd
00000360: 936c 963d b4d1 f5bc 228a 6d3f af62 6fbf
00000370: 623c 27bf d6a2 2c3f fa5c 8fbf 12b2 87be
00000380: b826 053d 7024 03bf 7a45 babe 6a54 abbe
00000390: 091b 9c3d 4e1f 98be 9991 a73e 7948 b5be
000003a0: 5729 a2be 85bb a5be c33d 9abf c19b 78bd
000003b0: df85 b93e dc3a fa3e 50c3 703c 650a 613e
000003c0: 6348 03bd d79c ecbe 8ca9 30be 0050 cabe
000003d0: c1c1 00be 329f 95be 0802 d7bf 6cd7 023f
000003e0: 7ab2 42bf 6594 bfbd e842 5fbf 5e66 a3be
000003f0: dd35 35be 05f0 9d3e c606 59bf 6b74 463f
0.41624755 0.18940383 0.62006575 0.11512006 0.019085178 -0.13449405 -0.9289497 -0.3157703
0.11874135 -0.599871 -0.5565499 -0.14002602 0.18743764 -0.16713786 -0.041326154 -0.059964694
0.21287002 -0.77888805 -0.84881943 0.096951574 0.8950275 -0.028570555 -0.13761307 0.393937
-0.40553534 -0.53495765 -0.44064996 -0.088522285 0.028237788 0.30389142 -1.9000537 -0.77741325
0.05394923 -0.52291614 0.6053698 -0.2748593 -0.26164892 -0.114831634 -0.3973042 0.3024952
-0.08195186 -0.12889196 -0.41540846 -0.74811584 -0.40384695 0.20755084 -0.40415493 -0.019102173
0.16777083 0.606338 -0.44913572 -0.67792964 0.40272895 0.020613972 0.23823272 -0.52384484
0.3102186 -0.06957337 -0.13766788 0.06873586 0.098711126 0.2361042 -0.047585778 -0.33492234
0.18509088 0.6405918 -0.24756195 -0.4744816 0.7367431 -0.39304397 -0.17218976 -0.32179984
0.18528531 0.021638038 0.1100584 -0.09327622 -0.3085203 0.09786012 -0.5809809 0.8132861
-0.51922756 -0.24089453 -0.69744885 -0.22643812 -0.21079908 -0.22208174 -0.11805023 0.24189106
-0.27935687 0.9186309 -1.6063269 -0.43471813 -0.61059684 0.6332703 -0.6105219 0.04043054
-0.45476973 -0.08474769 0.15289304 0.06003309 0.086650796 0.00030528253 -0.1267631 0.37001827
0.07436732 0.13486695 0.040891286 -0.18222512 -0.18073931 0.37115502 -0.28059024 0.07052562
-0.0683396 -0.30983308 -0.4535047 -0.47256052 0.070666894 -0.22190711 0.008645383 -0.055014543
0.22913632 -0.10470234 0.6812468 -0.64787453 -0.28397816 0.99367845 1.6197336 -0.09349942
-0.13201676 -0.3097186 -0.5793548 -0.1169254 0.28344965 0.19475028 0.34865427 0.04447605
-0.76245487 -0.029101687 -0.9525052 0.24272592 -0.17689998 0.4013018 -0.40851554 -0.20568562
-0.18562591 0.29821387 -0.5271888 0.28827035 0.4636723 -0.61349756 -1.1999627 -0.95194834
-1.0335921 -0.12365909 0.4901417 -0.20331995 -0.010492515 -0.08224601 -0.84534395 -0.6269108
-0.72182024 0.64966345 -0.63693416 -0.020059876 0.38795424 -0.3241112 -0.21387808 -0.21032383
-0.048656013 -0.36731473 0.20855038 -0.15834168 -0.3989505 -0.27066222 -1.6503794 -0.0078028976
0.58452576 0.23490164 0.35958195 -0.19886392 -0.39174125 0.43720716 0.90083045 0.31435353
-0.5289415 -0.2940531 -0.82886326 -0.61720735 -0.72253454 0.04966246 -0.091498785 -0.23701257
0.29944262 -0.3092352 -0.6831523 0.46097958 -0.11021562 -0.41827187 -0.80965847 0.18470302
0.5783453 -0.5661731 -0.30248952 -0.1587802 0.46590433 0.031126056 0.26102197 0.32472762
-0.15194142 0.22823806 -0.75094837 0.49999064 0.14893533 -0.34583834 0.027141944 -0.06043553
0.07344928 -0.03000722 0.927889 -0.93509954 -0.6532651 0.6743597 -1.1200249 -0.26503044
0.03250763 -0.51227474 -0.3638113 -0.3346284 0.07622344 -0.29711384 0.3272827 -0.35406855
-0.31672165 -0.3236963 -1.2050098 -0.060695414 0.36234948 0.4887303 0.014695004 0.21976621
-0.032051455 -0.4621341 -0.17252177 -0.3951416 -0.12573911 -0.2922302 -1.6797495 0.5110996
-0.76053584 -0.09354476 -0.87211466 -0.31914037 -0.17696328 0.30847183 -0.8477596 0.7752139

fc1.bias f4 [128]
00000000: a493 17be 768d 513e bd33 fbbd 4e2c 53bd
00000010: 3bda 213e 639c ad3e 96fb 82be 544e 88be
00000020: f5a7 513f c916 c7bc 7d4b ed3d 573f a0be
00000030: cd2a 90be bfc5 f3bd 6356 f8bd 6d94 303d
00000040: c856 98bc ccd3 48be 6472 cd3c 224b db3e
00000050: 28ec 2d3e 92d8 e93d 5247 a83d a177 083e
00000060: 4c09 483f 9300 e83e e477 cebe 637a d5bd
00000070: c7c9 933e a32e 4a3f 2dac 55be aefc 4abe
00000080: 6747 0a3f b9d5 b2be 5ed7 de3e 7105 833f
00000090: 1eef f2bc f52e 353e a4c5 a4be 44ef ce3c
000000a0: a48f bc3e a879 c0bd 7f21 4b3f e4fc 34bf
000000b0: 34d1 0cbe cd35 60be ebf3 adbe bec1 f5be
000000c0: fb1c b63e 3902 5f3e c688 263d f071 c53e
000000d0: 4e04 353c e118 4bbe fa44 723e 0a86 7dbd
000000e0: 3c0e 2a3e a833 b83e 5738 8e3d 6f0e 7c3d
000000f0: 49f5 723e e9cd 06bf fa96 163f 2efc a2be
00000100: f4c5 bf3c b040 34be 9990 7b3c 6c70 d2bb
00000110: f885 1abd b47c 0b3f 6463 ed3e 7bca 523f
00000120: b6f5 93be 8dc9 5d3e 7426 8d3e 5267 973e
00000130: 8308 bbbe 6aeb 8e3b 9278 e0be e373 fd3e
00000140: bc27 0e3f 0798 503d e5c0 6c3e 79e7 c43d
00000150: 0c53 2abe 37c4 2d3f d69d 19be b816 893e
00000160: bfee c43e e23c 663e 2c77 f8bc 938f f6bd
00000170: bfc2 093c 4c00 433e 08ac 8b3e 779e b63e
00000180: a79b d3bd 7df0 79bd 0616 133f 276a edbe
00000190: 8009 f2be c937 7d3e d86d f1bd 0ec4 df3e
000001a0: c3c6 5dbe eebb 473f 5b4b 11bf 763c fabe
000001b0: 66e7 4f3d 1e54 253f 05d2 d33e c442 7fbe
000001c0: 4f01 073f 0575 173f ca51 f03d 019b f1bb
000001d0: 11c3 c1bc 84a8 3c3e 8f56 463e afe2 a4be
000001e0: 4da7 c2bd a827 5ebe 6a3a 343e c86d 143e
000001f0: c9c5 6abc 5b93 12be 10e4 54be 055e fa3e
-0.14802414 0.2046412 -0.12265728 -0.051555924 0.15805905 0.33908376 -0.2558257 -0.2662226
0.8189691 -0.024302857 0.11586664 -0.31298324 -0.28157654 -0.119029514 -0.12125852 0.0431103
-0.018596068 -0.19612044 0.02507896 0.4283076 0.16984618 0.11418261 0.08216728 0.13326885
0.78139186 0.45312938 -0.40325844 -0.10423734 0.2886488 0.7897741 -0.20866461 -0.19822952
0.540152 -0.34928682 0.43523687 1.0236036 -0.029655036 0.17693694 -0.32182038 0.025260575
0.3682834 -0.09398204 0.79347986 -0.7069838 -0.1375168 -0.21895523 -0.33975157 -0.47999376
0.35568985 0.21778192 0.04065778 0.3856349 0.01104839 -0.1983371 0.23659125 -0.061895408
0.16606992 0.3597691 0.0694434 0.061537202 0.23726381 -0.52657944 0.5882412 -0.31833023
0.023409821 -0.17602801 0.015354299 -0.006422093 -0.03772542 0.54487157 0.46364892 0.8234021
-0.288984 0.21658917 0.275684 0.29571015 -0.3652993 0.0043615596 -0.43841988 0.49502477
0.5552938 0.050926235 0.23120458 0.096144624 -0.16633242 0.67877525 -0.15001616 0.26775146
0.384634 0.22484162 -0.030330263 -0.12039103 0.0084082475 0.19043082 0.27279687 0.35667774
-0.10332423 -0.061020363 0.5745548 -0.4637005 -0.47272873 0.24728312 -0.11788529 0.43704265
-0.21657853 0.7802113 -0.5675561 -0.48874253 0.050757788 0.6458148 0.4137117 -0.24927813
0.5273637 0.5916293 0.1173435 -0.0073732142 -0.023652585 0.18423659 0.19368957 -0.32204196
-0.09504566 -0.21694815 0.17600408 0.14495003 -0.014329382 -0.14314024 -0.20790124 0.48899856

fc2.weight f4 [128, 128]
00000000: 6d8e d9be ab26 753d 4527 54bd b096 83be
00000010: 07bd e13c 7feb b63d c224 19be 9ce6 c3bd
00000020: 678e fbbd d5f2 8fbe 41f5 32bf 3ea6 7cbe
00000030: c3e7 0dbf 8029 c3be 05bc 343d 369e d2be
00000040: 00ca 6dbe 53e0 a83d da37 65bf b618 32be
00000050: 6fdc ef3d f18c 1bbf cb3b 9abe 4b61 2dbd
00000060: 07c1 b5bd 5d6a 86be a7ca f03b 9031 35be
00000070: 1c7c 963e ef8a a5bd 771f a2be 86bc 42be
00000080: b450 08be 55fe 75bf 92bf 583e 8241 9dbe
00000090: f410 99be e52b 1fbb 6216 bd3e 0f45 06be
000000a0: a8df e8bc 1849 50be b81b 5dbe 4478 9ebe
000000b0: ca62 3d3e 5997 1ebe 74e1 e43c 4fa5 703d
000000c0: edcd 66be 3ea8 4e3e fe7f 08bf 0589 70be
000000d0: d007 8cbe adae 27be 0e01 b6be 0428 95be
000000e0: b3c3 b3be eecf 51be 0f02 813c 1e80 e73e
000000f0: 072c 09be ad48 863e 860b 9fbe 3d43 c93d
00000100: 0837 e33e 823f e23e 724f b0be f19e 98be
00000110: 7d6b d2be 9c79 0abe e733 7bbe ef1c 16be
00000120: ff7d e1be 1253 db3d ea26 513e 6c4a 37be
00000130: 2baa acbe 44ab d0bd 69b4 16bf 4d5e 633d
00000140: 98e0 89bd 8c00 11bf 4b51 063e 7270 41be
00000150: b746 9ebe 003c f9bd 8624 dabe cad6 7ebe
00000160: 08de 4d3b 48c7 0f3f 7bb2 913c 2384 62be
00000170: 5629 a63b f94b b2be ba7a 9bbd d1fe c0bd
00000180: bbe3 9ebe 9463 26be f0c9 c8bd 7707 563d
00000190: 7ae5 553f bd79 83be 13bb 03bd ba24 a8bd
000001a0: 79b2 ca3c 0f4e a9bb 65e2 94bd 2c08 c3be
000001b0: d145 b9bd 522f 213f 82e0 41be 9b4c aa3e
000001c0: 49a1 663c 3a17 13bd 22a8 e83e ab72 60be
000001d0: dd70 ed3d 3233 483e b556 92bc 0800 12be
000001e0: b49f 68bf f6b6 afbe 261b 66be d6fc 7abe
000001f0: d619 103e 6838 26bf 2f36 e93d 5987 a1bd
00000200: 5de8 7bbb 0d76 9fbc 3443 553c d24a 14bd
00000210: c96c 2f3d 53d6 f0bd 0952 e3bc c094 613d
00000220: cdd6 43bc f318 b0bd 0ec1 88bd 7eac a33c
00000230: 9c7f 2fbd 4be0 5a3d 586a 863c ecb4 9a3c
00000240: 5449 b2bd 1f55 e9bd 0735 10bc 716b a1bd
00000250: 1e24 5fbd 834d 283c b05b 29bd ec00 0a3d
00000260: 234a 82bd 6f4d 75bd 97a0 9fbd bc66 76bd
00000270: a24f 97bd 16df 133d f40a 57bc 6a2c 6f3d
00000280: 63ab 943d 053c 93bd 1dd3 e03c d47a eabd
00000290: 0602 95bd e0af a73c c4ed 593c 8c85 a1bc
000002a0: 1080 4cbb 7f90 a03d b3c8 5dbc 12bc 82bb
000002b0: 37c4 77bc 6ed8 c8bd 55f9 87bd b702 09bd
000002c0: ff0b 96bd 2451 c0bd f1a0 56bd c6ca fa3c
000002d0: a1c6 a73c fdba 50bd 9dd6 e5bb 7bdc 74bd
000002e0: 134a 8a3c 02b5 2dbd fd78 2ebd 658b 383c
000002f0: 8e56 1a3c 10dc 2a3d e31c cf3c 8728 933c
00000300: 069d a9bd 3c61 403d 8800 bebd d7a8 84bd
00000310: 0eb3 68bd 7069 12bd d238 2f3d 83a6 923c
00000320: 8acd ea3c 898e 963d e6ac 9dbd fd59 a3bd
00000330: 4452 913d 1670 743d c9c3 9c3d e74b 2b3d
00000340: 0687 a4bd 3d05 b9bd 4512 8ebc 0a5e 03be
00000350: 3178 3abc 8cd7 00bd 3243 a33c a2a2 cfbd
00000360: 5025 503d 6752 193c d1ec 52bc 195e 973d
00000370: 6339 303d 7853 173d e003 5e3d d8e6 c33a
00000380: d5e2 afbb ccf5 99bc ecd9 623d 927d c93c
00000390: 6922 b43c cd22 9dbd 81d6 753d 9741 dfbc
000003a0: 6027 46bd 6ab0 d3bb 5941 113d cc1d 95bd
000003b0: 88de 82bd a61e 75bd 73c6 183d eaf7 a33d
000003c0: 1516 83bd 3984 7cba 4734 0fbd e6a6 913c
000003d0: fb28 f03c 172a 133d efd4 a2bc 6a47 69bd
000003e0: c8ee 0f3d 4206 25bb 0239 353d d188 efbc
000003f0: 6cda 2ebd 0ad7 a0bd 1b74 1cbd c9d9 efbd
-0.42491475 0.05985133 -0.051795263 -0.25700903 0.027555956 0.08931636 -0.14955428 -0.095654696
-0.122830205 -0.28114954 -0.6990548 -0.24672791 -0.55431765 -0.381176 0.044124622 -0.4113633
-0.23221588 0.082459114 -0.8953835 -0.17392239 0.11711966 -0.60761935 -0.30123743 -0.042329114
-0.08874708 -0.26253024 0.007348377 -0.17694688 0.29391563 -0.0808314 -0.3166463 -0.19017228
-0.13312036 -0.96091205 0.21166828 -0.3071404 -0.29895747 -0.0024287638 0.3693114 -0.13112281
-0.02842696 -0.20340383 -0.21592605 -0.3095113 0.18494716 -0.15487422 0.027939536 0.0587514
-0.22539492 0.20181367 -0.533203 -0.23489769 -0.2734971 -0.16375227 -0.3554768 -0.29132092
-0.35110244 -0.20489475 0.015748052 0.45214933 -0.13395701 0.26227322 -0.3106348 0.09827278
0.44377923 0.44189078 -0.34435612 -0.29808763 -0.41097632 -0.13522953 -0.24531518 -0.14659475
-0.4404144 0.10709204 0.20425001 -0.17899483 -0.33723578 -0.10188916 -0.58869034 0.055509854
-0.06732291 -0.5664146 0.13116948 -0.1889055 -0.30913326 -0.12169647 -0.4260599 -0.24886623
0.0031412859 0.56163454 0.017785301 -0.22120719 0.0050708456 -0.34823588 -0.075917676 -0.09423602
-0.3103312 -0.16248924 -0.098041415 0.052253213 0.8355328 -0.25678816 -0.03216083 -0.0821013
0.024743306 -0.005166776 -0.07269744 -0.38092172 -0.090465195 0.6296283 -0.18933299 0.3326157
0.014076539 -0.035910822 0.45440775 -0.21918742 0.115937926 0.1955078 -0.01786361 -0.14257824
-0.9086869 -0.34319276 -0.22471294 -0.24510512 0.14072356 -0.6492982 0.11387288 -0.07887144
-0.003843806 -0.01946547 0.013016511 -0.036204167 0.042828355 -0.11759629 -0.027749078 0.0550735
-0.011953068 -0.08598509 -0.06677447 0.019979712 -0.042846307 0.05343656 0.01640813 0.018885098
-0.087053925 -0.11393189 -0.008801705 -0.07881821 -0.054477803 0.0102723865 -0.041347206 0.033692285
-0.06361797 -0.0598883 -0.07794302 -0.06015657 -0.07388236 0.036101423 -0.01312517 0.058391966
0.07259252 -0.07189182 0.027444417 -0.11449209 -0.072757766 0.020469606 0.013301317 -0.019717
-0.003120426 0.078400604 -0.01353662 -0.003989705 -0.015122465 -0.09806906 -0.06639353 -0.033449855
-0.07326507 -0.09390476 -0.05239958 0.030614268 0.020480456 -0.050959576 -0.0070141093 -0.05978058
0.016881024 -0.04240895 -0.042595852 0.011263703 0.00942005 0.041713774 0.025282329 0.01796366
-0.08281903 0.04696773 -0.09277445 -0.06477516 -0.056811385 -0.035745084 0.042778797 0.017901665
0.028662462 0.07351405 -0.076989934 -0.07976148 0.07095769 0.059677206 0.076545306 0.041820433
-0.08033566 -0.09034202 -0.017342696 -0.12828842 -0.011381195 -0.03145556 0.019929502 -0.101384416
0.050816834 0.009358025 -0.012873844 0.073909946 0.04302348 0.036944836 0.054202914 0.0014946116
-0.0053676167 -0.018793963 0.055383608 0.02459601 0.021989064 -0.07672653 0.06001902 -0.027252955
-0.048377395 -0.006460239 0.03546271 -0.07281074 -0.06390101 -0.05984368 0.03729863 0.0800627
-0.06400696 -0.000963274 -0.034961965 0.017779779 0.029316416 0.035928812 -0.019876925 -0.05695287
0.03513983 -0.0025180732 0.04424382 -0.029240044 -0.042688772 -0.078535154 -0.038196664 -0.11711461

fc2.bias f4 [128]
00000000: a62d d93e 344a 81bd e500 36be 4a5a 883f
00000010: 11a0 95bc cc0a 223f ef94 4f3c 2465 81bd
00000020: 663e 24bc 11aa 3f3d 001b 12bc 3452 d63e
00000030: b5f9 8e3f f6f9 853f 51af f6bd d9a2 42bc
00000040: 6657 533e 80ec 983f 21fc 6f3f 6d0d b83d
00000050: 0e8d 66bc 8108 ad3f d36c 6dbd 7405 ff3e
00000060: 4eec 713f 4f9b fdbd 4c2e a73d 6800 7d3e
00000070: 307f d3bd 8d7d e33e 801f 823f 60c1 663f
00000080: 5c5d b13b d4b4 963e 918d bd3e ed57 aa3f
00000090: 2932 433e 0d91 ab3f 76ea 9f3f a4f3 d03e
000000a0: 5709 b13f 84b8 893f 77fd 09bd fbb6 143f
000000b0: 9ef1 fd3e 4b1a 9c3f 6874 b5bd cd53 9bbc
000000c0: c0b6 13bd b522 03bd 1ead d23e 0bf3 b03f
000000d0: c76d 473d 2249 c93c db62 013f 23fe e8bd
000000e0: 440d 1cbd c014 91bd f022 5ebd 871a a53f
000000f0: 4bbf 183f 23b0 183f e714 af3e 3b13 733f
00000100: e331 ddbd c26a cabd 7b78 febc d8af 883f
00000110: 9b07 0cbe 2fad 8d3f 2c44 f1bd b1e1 cabd
00000120: df58 6f3e db37 34bd 4c59 323f fcf6 ab3f
00000130: c785 79bc 0b49 7e3f e82f 4c3f 22aa 0cbe
00000140: e198 d1bd b622 c1bd 2303 9dbd 0ff9 0cbe
00000150: 4a42 033e 6a42 dabc 2066 c33e 1c46 883e
00000160: bc53 0abd 2e35 7b3f 582e 05be feb6 58be
00000170: 50cb 853f 9cd8 903f 95f7 d53d 476b e8bd
00000180: d16d 593e 577d f4ba 4902 713e 6d8b 18bc
00000190: 0d83 d03e dc7c 03be 5876 e0bd db50 04be
000001a0: f17b 853c 0886 e3bd 59e7 05be 4b7a 08be
000001b0: 9137 a33d d480 b23f 8d54 06bd 6154 c53e
000001c0: 47e3 0ebd bf79 4b3f e5d0 683f 108e ddbd
000001d0: b11a 9b3e 545d 30be 3d11 8abd a299 e0bc
000001e0: 9201 a13f 47e9 9bbe dd17 44bd ce53 bdbd
000001f0: f68e 68bd d0fa c4bc 98aa 95bd 4cef 4cbc
0.4241764 -0.06312981 -0.17773779 1.0652554 -0.018264802 0.63297725 0.012669786 -0.06318119
-0.010024643 0.046793047 -0.00891757 0.4185959 1.1169955 1.0466907 -0.12045158 -0.011879646
0.20638809 1.1947174 0.93744093 0.08986936 -0.014071716 1.351822 -0.05796511 0.49808848
0.945012 -0.123831384 0.08163127 0.24707186 -0.103269935 0.44431725 1.0165863 0.90138817
0.0054127406 0.29434836 0.3702207 1.3308083 0.19062103 1.3403641 1.2493427 0.40810883
1.3830975 1.0759435 -0.03368899 0.58091706 0.49598402 1.2195524 -0.08860093 -0.018960858
-0.036062956 -0.03201552 0.41147703 1.3824171 0.048688676 0.024571005 0.50541466 -0.11376598
-0.03809859 -0.07084036 -0.054232538 1.289872 0.5966689 0.59643763 0.34195635 0.9495122
-0.10800531 -0.09883644 -0.031063309 1.0678663 -0.13674776 1.1068476 -0.11780581 -0.099063285
0.23373745 -0.04399858 0.69667506 1.3434749 -0.015229649 0.99330205 0.797606 -0.13736776
-0.102342375 -0.09430449 -0.07666614 -0.13766883 0.12818256 -0.026642997 0.38163853 0.2661599
-0.03377126 0.9812802 -0.1300596 -0.21163556 1.0452671 1.1316104 0.10447613 -0.113485865
0.21233298 -0.0018653077 0.23536028 -0.009310585 0.40724984 -0.12840599 -0.10960072 -0.12921469
0.016294451 -0.11109549 -0.13076533 -0.13327901 0.07969583 1.3945565 -0.032795478 0.38540938
-0.034884717 0.79482645 0.9094375 -0.10818112 0.302938 -0.17223102 -0.06741569 -0.027417008
1.2578604 -0.30451414 -0.04787432 -0.092445 -0.056776963 -0.024045378 -0.07307929 -0.012508225

fc3.weight f4 [6, 128]
00000000: 63be 06be 15bb 463d deb1 da3e 636f 60be
00000010: 84f4 26bd 5893 12be 4c7c 89bd 5058 503d
00000020: a80e cfbc eb4f 16be be6c 4a3d 1a30 82bf
00000030: 4569 80be c8e3 8ebe ad01 033c 2f34 4ebb
00000040: dcdf 91bd a571 e3be 37b9 a8be 5a88 e13e
00000050: c7a1 6b3d a00d cbbe e6a0 5f3d 5226 2dbe
00000060: 1fcc 8abe b990 56be 3806 ae3d 4d4f eabe
00000070: 6ced 84be 226c cbbe 8755 b3be 1813 44be
00000080: d924 843c 0b47 393c 4909 2fbd ed05 bdbe
00000090: 1d6c d73e 0c65 c0be e05e 51be d800 b7be
000000a0: 384c 9dbe 76b9 9ebe 2715 a33c 3b1b 3dbd
000000b0: 4bbf 8fbd 356a 9dbe d788 2e3c fc8a 543c
000000c0: 9cf4 df3c 6465 493f edcc 9f3d 9c6a b3be
000000d0: 91dd e3bc 8ff8 39bd f818 0c3d dd31 5fbe
000000e0: 9ca2 8abc 11fa c9bd 71eb 2ebf f603 9bbe
000000f0: fad8 053e 6d32 58be e572 42be c209 c6be
00000100: e55f aebd 0f24 e8bc 8fff a83d 682c a4be
00000110: 213e 3f3d b197 8bbe 0cc8 a63d c066 4cbd
00000120: 6543 2cbd f993 c9bd e50c dfbe a990 babe
00000130: 31bb 863d 9f62 8abd 9f21 69bd 33f0 abbc
00000140: 917b cf3d 89d4 773c 1219 aabc 7cc6 973c
00000150: 096f c2be a8bf 223d 31c3 c6be 0957 c9bd
00000160: 6208 70bd cd46 54bf 566a 1fbe 9753 363e
00000170: 7244 a5be 2a5f d8be aef8 c8be eb55 d6be
00000180: f5d0 c33c db2a 9abd 102c 5fbf ebb8 05be
00000190: a4e7 9fbd eebe d63c f17c a13d fd05 43bd
000001a0: 2c68 3abe 4345 eaba 4c08 20bd f019 ad3d
000001b0: 5c7f b03e 8c16 e7be ef0a 21bd 0d24 1ebf
000001c0: 3f82 86bd 4223 143b c60a 59be 32c1 0c3f
000001d0: a02f a73e 3bb1 783f c431 cd3c 781e 273d
000001e0: 1f98 94be c663 87be 759c 00be d3c9 ab3b
000001f0: 3e3e c1bd 7a75 7b3c 6483 98bd b6ba 05bc
00000200: 1115 cfbd 7e6c e9bc da31 493f e071 62be
00000210: 0683 8a3d dcba 04be 08b0 14be dd12 f73c
00000220: 1fa1 e83b 2dc2 513f c894 d1bc e3a8 9cbf
00000230: d80d 8bbe 7ef9 80be c746 713d d0c5 00bc
00000240: c2e2 c7bc 1a85 5abe d8b1 76be 6c66 45be
00000250: d395 7b3d 5394 9ebe 14a0 a33d 2ca8 d1be
00000260: fd42 8fbe 7fe0 90be 8047 e6be 4dde f6bd
00000270: 9fca 1cbe c98d be3c e408 51be e08d c2bd
00000280: 4dec e03c c5c0 20bd 8782 99bd 5795 c4be
00000290: 0018 623e 18e9 9ebe cf0f ddbe 7fbb 303d
000002a0: 000d ccbe 7ab1 7dbe 8e36 adbd 4f2b 153e
000002b0: 0db6 c73d c983 74be dabc 093c b018 973d
000002c0: 88ce 50bc a594 a7be ff3e d7be f7a4 ecbe
000002d0: 91d7 393c e5c3 56bc 700f 213e 1c9e aa3d
000002e0: dcd5 0abd ef97 ccbc e6db 563f 760b bfbe
000002f0: a909 25bf de60 223e 4e6c b73c a9b0 73be
00000300: d0b0 9dbd a87c 803d 7a87 8dbd 4ae8 6bbe
00000310: 5031 35bc 91a9 84be a03e cdbc 528b 523d
00000320: 150b 8ebe b642 153d 72f0 c2bb 88d2 cabe
00000330: fd50 a9bc 51b2 20bf 13c7 4abe c9d3 403d
00000340: aec0 653d 3211 893d bdc7 2abd f59c 30bd
00000350: 301e 9cbe 8c66 d63c 13e6 94be d18f dcbc
00000360: f1c2 fe3c 9244 63bf 3ba8 4dbe 608f ac3e
00000370: d8ef 2abe ef66 38be 3dcb b03e 25c8 7ebe
00000380: ba87 383e 04ae e8bc 198d 763e cf37 d0be
00000390: aa27 9abd cbfe bbbc 54b1 653d 8872 7dbc
000003a0: 2ab4 cbbe 3b04 013c fd4e 6dbb 8387 913c
000003b0: 3373 b43e 36e7 e5be 09aa 88bc a909 a5be
000003c0: 06ad 203d 450f 1abf 5b0d 10be a40f d8bc
000003d0: 3a87 96be eca1 9c3d 69db 5bbb 58eb a2bc
000003e0: 5597 a6be 9bb0 083e 5223 d8bd 6d4e d03c
000003f0: 2de1 a5bd 9881 553a 11be 823d c7b6 d23c
-0.13158564 0.04851826 0.42713827 -0.2191749 -0.040760532 -0.1431402 -0.06713161 0.05086547
-0.025275543 -0.14678924 0.04942011 -1.017093 -0.25080314 -0.27908158 0.007996005 -0.003146421
-0.07122776 -0.4442264 -0.32953808 0.4404934 0.05752733 -0.39658833 0.054596804 -0.1690915
-0.27108857 -0.20953645 0.0849728 -0.45763627 -0.2596239 -0.39730936 -0.3502619 -0.19147909
0.016130852 0.011308442 -0.042733464 -0.36918584 0.4207467 -0.37577093 -0.20446348 -0.3574283
-0.30722213 -0.3100087 0.019907547 -0.046168547 -0.07018908 -0.30745092 0.010652742 0.01297259
0.027338319 0.78670335 0.07802758 -0.35042274 -0.027815612 -0.04540306 0.0342035 -0.21796365
-0.016923241 -0.098621495 -0.68328005 -0.3027646 0.13071051 -0.21112986 -0.18989141 -0.3867932
-0.08514384 -0.028337507 0.08251869 -0.3206513 0.04669011 -0.2726417 0.08143625 -0.049902678
-0.04205646 -0.09842677 -0.43564525 -0.36438492 0.06578673 -0.06757092 -0.05691683 -0.02098856
0.1013099 0.015126356 -0.020763908 0.018527262 -0.37975338 0.03973356 -0.38820794 -0.09831054
-0.058601744 -0.82920533 -0.15567908 0.17805324 -0.32278782 -0.42260104 -0.39252228 -0.41862425
0.02390335 -0.07527705 -0.8717661 -0.13058822 -0.07807854 0.02621409 0.07885159 -0.047613133
-0.18203801 -0.0017873425 -0.039070413 0.08452213 0.34472167 -0.4513439 -0.039317068 -0.6177376
-0.06567811 0.0022604023 -0.21195516 0.5498229 0.32653522 0.9714543 0.025048144 0.04080054
-0.2902231 -0.2644331 -0.12559684 0.005242565 -0.094357 0.015347833 -0.07446936 -0.008162191
-0.1011144 -0.028494116 0.7859169 -0.22113752 0.06763272 -0.12961906 -0.14520276 0.030160362
0.0070992853 0.81936914 -0.02558364 -1.223904 -0.27159 -0.25190347 0.05890539 -0.007859662
-0.024400119 -0.21339837 -0.2409128 -0.19277352 0.06142218 -0.30972537 0.07989517 -0.40948617
-0.27980796 -0.28296277 -0.44976425 -0.12054119 -0.15311669 0.023260968 -0.20413548 -0.09499717
0.027456427 -0.03924634 -0.07495599 -0.38395187 0.22079468 -0.3103721 -0.43176123 0.04314756
-0.39853668 -0.24774733 -0.08457671 0.14567302 0.0975152 -0.23878397 0.008406842 0.07377756
-0.012744553 -0.32730594 -0.4204025 -0.46219608 0.011342899 -0.013108228 0.15728545 0.08330938
-0.03389536 -0.024974791 0.8392929 -0.37313432 -0.64467865 0.15857264 0.02239051 -0.23797859
-0.0769974 0.06273776 -0.06910606 -0.2303783 -0.01105912 -0.2591062 -0.025054276 0.051402397
-0.2774283 0.036440574 -0.0059490735 -0.39613748 -0.020668501 -0.6277209 -0.19802503 0.047076974
0.056091957 0.06692733 -0.04169439 -0.043118436 -0.3049178 0.026171945 -0.29081783 -0.026924046
0.031098815 -0.88776505 -0.20083706 0.33703136 -0.16693056 -0.18008016 0.34530059 -0.24881037
0.18020526 -0.02840329 0.24077262 -0.4066758 -0.075270966 -0.022948643 0.056077316 -0.015469201
-0.39785892 0.007874544 -0.003621041 0.017764812 0.3524414 -0.44902962 -0.016682642 -0.32233933
0.039227508 -0.6017955 -0.14067595 -0.026374646 -0.29400045 0.07648072 -0.0033547527 -0.019887611
-0.32537332 0.1334862 -0.10553612 0.025428021 -0.080995895 0.0008144616 0.063839085 0.02572192

fc3.bias f4 [6]
00000000: 7036 80bf d379 8cbf 774c 8abf 00d6 7dbf
00000010: 189f 62bf 22de 62bf
-1.0016613 -1.0974678 -1.0804585 -0.99154663 -0.8852401 -0.886202
